model/MNIST_16_net.pt (torch, 241150 bytes, 10 tensors)

conv1.weight f4 [10, 1, 5, 5]
0	0xbd3308e6	-0.043709658
1	0x3d04431d	0.032290567
2	0x3cffbb56	0.031217258
3	0x3d6391cb	0.05555896
4	0x3c768099	0.0150453085
5	0x3e802336	0.25026864
6	0xbd34d561	-0.044148806
7	0xbc3b7dd2	-0.011443572
8	0xbcb1303e	-0.021629449
9	0xbc023aa8	-0.007948555
10	0x3cb06ddb	0.021536758
11	0xbdc500e4	-0.096193105
12	0xbe8e345d	-0.27774325
13	0xbdff263d	-0.12458465
14	0xbd67492e	-0.056466274
15	0x3dc60f9d	0.09670947
16	0x3e30d204	0.17267615
17	0xbdcc1368	-0.09964639
18	0xbec422a6	-0.38307685
19	0xbecaaf06	-0.39586657
20	0x3dcf49da	0.10121508
21	0x3e8084dc	0.25101364
22	0x3cf9200b	0.030410787
23	0xbe296ed1	-0.1654618
24	0xbeb4acbd	-0.3528804
25	0xbe324966	-0.17410812
26	0xbdeaae78	-0.114590585
27	0x3d98ed51	0.074671395
28	0x3e3c8cf7	0.18413149
29	0x3e1e62aa	0.15467325
30	0xbe9cef10	-0.3065114
31	0xbd850e49	-0.06496865
32	0x3e27f9a1	0.1640382
33	0x3e86b909	0.26313046
34	0xbe0c1f1e	-0.13683745
35	0xbd9dc627	-0.0770381
36	0x3e49c83e	0.19705293
37	0x3e9ad2b9	0.30238894
38	0xbde6c643	-0.11268284
39	0xbe0d23ed	-0.13783236
40	0xbbf8a28a	-0.0075877355
41	0x3d697efb	0.057005864
42	0x3c78d6b2	0.015187906
43	0xbe0ab2b0	-0.13544726
44	0xbd491df5	-0.049100835
45	0x3d9f3155	0.07773081
46	0x3e44efc4	0.19232088
47	0xbcd95cd5	-0.026533524
48	0x3c89d697	0.016825957
49	0xbe274e99	-0.16338576
50	0x3dfa8dfb	0.12234112
51	0x3e8419fe	0.2580108
52	0x3e0167fc	0.12637323
53	0xbdccca0a	-0.099994734
54	0xbde0752d	-0.109598495
55	0xbeb9d35b	-0.36294064
56	0x3cd1c811	0.025608094
57	0x3e4acdc2	0.19805053
58	0x3e0dfa61	0.13865043
59	0xbe9b77dd	-0.30364886
60	0xbeb22b11	-0.34798482
61	0x3d5b2094	0.053497866
62	0x3d524deb	0.05134384
63	0x3ea4b347	0.32168028
64	0x3e06f1f3	0.13178234
65	0xbf054d3c	-0.52070975
66	0x3d3975a1	0.045278195
67	0xbdecd9b0	-0.11564958
68	0x3e340dc7	0.1758338
69	0x3e2d4f16	0.169247
70	0xbdc4ecb0	-0.09615457
71	0xbe960b60	-0.29305553
72	0xbe299e2f	-0.16564249
73	0xbe89f8a7	-0.2694752
74	0xbdc33f9d	-0.09533618
75	0x3e2daf33	0.16961364
76	0xbe8f314a	-0.27967292
77	0xbee49118	-0.44641948
78	0x3d617977	0.05504748
79	0x3dcd108c	0.10012922
80	0x3dc3e842	0.09565784
81	0xbe025a93	-0.12729864
82	0xbeea5e79	-0.45775202
83	0x3c348ec6	0.011020368
84	0x3e32ca9d	0.17460103
85	0x3e0db2d5	0.1383775
86	0xbdb2acb5	-0.087243475
87	0xbeb87d0a	-0.36032897
88	0xbd2b0293	-0.0417505
89	0x3e1a9be6	0.15098533
90	0x3e5b8569	0.2143761
91	0xbe1288c1	-0.1430998
92	0xbe86f118	-0.26355815
93	0xbe2d1f47	-0.16906463
94	0x3e86daf0	0.2633891
95	0x3e0b51c8	0.13605416
96	0xbe12603f	-0.14294527
97	0x3bdeb7d6	0.0067968173
98	0xbe1e6048	-0.15466416
99	0x3e591895	0.21200784
100	0xbef38708	-0.47563958
101	0x3e53298d	0.20621319
102	0x3e6a50bc	0.2288236
103	0x3db5f958	0.08885449
104	0xbdc0f3b4	-0.09421483
105	0xbe84ae61	-0.2591429
106	0xbec10ee5	-0.37706676
107	0xbecd523e	-0.40101808
108	0xbf17731b	-0.5916001
109	0xbf0cabbf	-0.54949564
110	0xbda7ae29	-0.08187515
111	0xbe35cf06	-0.17754754
112	0xbe5ae211	-0.213753
113	0x3d157cb9	0.036495898
114	0x3d04eb88	0.032451183
115	0xbe4ece9f	-0.20196007
116	0x3d85d4af	0.06534707
117	0x3c991ad8	0.018689558
118	0x3d9f94c3	0.07792046
119	0x3e147e7f	0.1450138
120	0xbe1295c6	-0.14314947
121	0x3c8639a7	0.016384913
122	0x3e5d1281	0.2158909
123	0x3e4b5d2e	0.19859764
124	0x3e563811	0.20919825
125	0xbdba7a84	-0.09105399
126	0xbe75785e	-0.23971698
127	0x3d96f39e	0.07370685
128	0xbd3c5c96	-0.045986734
129	0x3e87232e	0.26394027
130	0x3d116e5c	0.035505638
131	0xbe3936ee	-0.1808736
132	0xbeb91b88	-0.36153817
133	0xbeceb38f	-0.40371367
134	0xbe958a36	-0.2920701
135	0x3e9508cd	0.29108277
136	0x3e9da07c	0.30786502
137	0x3e5feb23	0.21867041
138	0xbd840f69	-0.06448252
139	0xbe74c9b0	-0.23905063
140	0x3c893308	0.016747966
141	0xbac10b2b	-0.001472806
142	0x3e75a84f	0.23989986
143	0x3d449744	0.04799582
144	0x3d91bd06	0.071161315
145	0xbe031214	-0.12799865
146	0xbc08aa3f	-0.008341371
147	0x3d9b7ba4	0.07591942
148	0x3e10279b	0.14077608
149	0x3d1e9b6f	0.03872245
150	0x3e3ae55c	0.18251556
151	0x3d94e75f	0.07270693
152	0x3dee595d	0.116381384
153	0xbd9f0a61	-0.077656515
154	0xbeef9b6b	-0.46798262
155	0x3e7d2d52	0.2472432
156	0x3e16dfc8	0.14733803
157	0x3dfea931	0.124346144
158	0xbe0cd79b	-0.13754122
159	0xbf2af99b	-0.6678712
160	0x3e68c353	0.2273076
161	0x3d888c80	0.06667423
162	0xbe7968b0	-0.24356341
163	0xbf77b20f	-0.9675607
164	0xbe1ce197	-0.1532043
165	0xbde28a17	-0.11061495
166	0xbea53f72	-0.32274967
167	0xbf120c5c	-0.5705011
168	0x3d876c3c	0.06612441
169	0x3e63b244	0.22235972
170	0xbef88149	-0.48536137
171	0xbec84694	-0.39116347
172	0xbc513de6	-0.012771105
173	0xbd7344a3	-0.05939163
174	0x3d3f2896	0.046669565
175	0x3e26180d	0.16220112
176	0xbdbaa135	-0.09112779
177	0xbe9e0425	-0.30862537
178	0x3d57a80a	0.05265049
179	0xbcde6563	-0.027147954
180	0x3e3b0234	0.18262559
181	0xbe900162	-0.28126055
182	0xbeefef43	-0.4686223
183	0x3e849b32	0.25899655
184	0x3e50f0c8	0.20404351
185	0xbc9b5db7	-0.018965585
186	0x3db5a9c3	0.0887027
187	0x3e39250e	0.18080541
188	0x3dfbcbc3	0.12294724
189	0xbd6f1b73	-0.058375787
190	0x3d3af539	0.04564402
191	0x3dc16248	0.09442574
192	0x3da2f2e2	0.079564825
193	0x3d7612ea	0.06007663
194	0xbe8856c3	-0.26628694
195	0x3e40ddff	0.18834685
196	0x3d6253cb	0.055255692
197	0xbe2a4eb2	-0.16631582
198	0xbd7ea716	-0.062171064
199	0xbd801120	-0.06253266
200	0x3d9ccd4e	0.07656346
201	0xbd94ac00	-0.07259369
202	0x3de3ac80	0.11116886
203	0x3de3fbbe	0.111320004
204	0x3db00013	0.08593764
205	0x3db8d098	0.09024161
206	0x3e31ee9d	0.1737618
207	0x3e15e2f9	0.14637364
208	0xbc0df1c6	-0.0086636
209	0x3e19bddc	0.15013832
210	0xbed7ab55	-0.42122903
211	0x3af4e2da	0.001868333
212	0x3e671641	0.22567083
213	0x3df199f8	0.11796945
214	0x3c88e4c8	0.016710654
215	0xbec66be8	-0.387542
216	0xbf052647	-0.5201153
217	0xbdb61278	-0.088902414
218	0x3e55e6a2	0.2088876
219	0xbea96cb2	-0.3309074
220	0xbda8b946	-0.08238463
221	0xbe8e288b	-0.27765307
222	0xbf382bd1	-0.7194186
223	0xbf2cb797	-0.67467636
224	0xbf102d6f	-0.56319326
225	0xbdd4c786	-0.103896186
226	0xbe69609a	-0.22790757
227	0xbe3bb9d0	-0.183326
228	0xbe56e1f8	-0.20984638
229	0x3d2d3caf	0.0422942
230	0x3e0bc177	0.1364802
231	0x3d4e630c	0.050387427
232	0x3e85dafd	0.26143637
233	0x3debd22d	0.11514697
234	0x3e5cc8f9	0.2156104
235	0x3e3edc88	0.18638813
236	0x3e397c78	0.18113887
237	0x3d833227	0.0640605
238	0x3d32838e	0.04358249
239	0xbd4a7d6b	-0.049436014
240	0xbd44df89	-0.048064742
241	0x3d3db45d	0.046314586
242	0xbce5edaa	-0.028067429
243	0x3d2ce26e	0.042208128
244	0x3d688e18	0.056776136
245	0xbe9999ba	-0.30000097
246	0xbe99d252	-0.30043274
247	0xbe47e508	-0.19520962
248	0xbeb674cc	-0.35635984
249	0xbce05734	-0.027385332

conv1.bias f4 [10]
0	0xbddaa053	-0.10675111
1	0xbea09bb8	-0.31368804
2	0xbd843526	-0.0645545
3	0xbdaa7799	-0.08323593
4	0x3d07cc3f	0.03315377
5	0xbe170bf4	-0.14750654
6	0x3c81bf7d	0.015838379
7	0xbe92a04f	-0.2863793
8	0x3d42c255	0.04754861
9	0xbd8e7b7e	-0.06957148

conv2.weight f4 [20, 10, 5, 5]
0	0x3d92fc13	0.071769856
1	0x3e857a48	0.26069856
2	0x3d8a8027	0.06762724
3	0x3cbacb76	0.022802096
4	0x3b3162cb	0.0027066942
5	0xbdbcb320	-0.09213853
6	0x3e7760c1	0.24158002
7	0x3d83bc1a	0.06432362
8	0x3d8e14ab	0.06937536
9	0xbe234831	-0.15945508
10	0xbd18ad5d	-0.037274707
11	0x3d00807a	0.031372525
12	0x3e06a0aa	0.13147226
13	0xbdd9c0ba	-0.10632463
14	0xbe1b6ae8	-0.151775
15	0x3dfa6dec	0.12227997
16	0xbd484fb4	-0.048904136
17	0xbe0004f3	-0.12501888
18	0xbe40c75a	-0.18826047
19	0xbe2c842d	-0.16847296
20	0xbd1d502e	-0.038406543
21	0xbc1ba4ff	-0.009499787
22	0xbc63bfae	-0.0139006805
23	0xbcc369b8	-0.023854122
24	0xbd953ca7	-0.07286959
25	0xbea2779b	-0.31731877
26	0xbde11219	-0.1098978
27	0x3d34ec66	0.04417076
28	0x3df7a9ac	0.12092909
29	0x3e34e389	0.17664923
30	0xbdb5e1b5	-0.08880941
31	0xbda31220	-0.079624414
32	0x3b3ba80b	0.0028634097
33	0xbce4cb03	-0.027928835
34	0x3d3bb246	0.04582431
35	0x3e40e635	0.18837817
36	0x3df7e439	0.12104077
37	0x3ce99640	0.028514028
38	0xbe13250d	-0.14369603
39	0x3dcedbae	0.10100494
40	0x3d9a638d	0.07538519
41	0xbd1e2e43	-0.038618337
42	0x3b79fa21	0.0038143473
43	0x3d11e3c9	0.035617623
44	0x3de89edf	0.11358427
45	0xbd05cccc	-0.032666013
46	0xbe3d9fa6	-0.18517932
47	0xbe414cc2	-0.18876937
48	0x3d154c6b	0.03644983
49	0xbc227914	-0.009916563
50	0x3e1ff427	0.1562048
51	0x3d8103cb	0.062995516
52	0xbeb6311f	-0.3558435
53	0xbef81e93	-0.48460826
54	0xbeb3e46d	-0.35135213
55	0x3d6d63d1	0.05795652
56	0x3de3480c	0.11097726
57	0xbd991bbf	-0.07475995
58	0x3e02fce4	0.12791783
59	0x3e73f3e7	0.2382351
60	0xbe0112c6	-0.12604818
61	0xbe1b2030	-0.15148997
62	0x3bcba20a	0.006214385
63	0x3e0afe60	0.13573599
64	0x3de58fe1	0.11209083
65	0x3d62cd20	0.055371404
66	0xbd0dd58e	-0.03462749
67	0x3d0f377c	0.034965023
68	0x3ca0729c	0.0195859
69	0xbe82b58b	-0.2552913
70	0x3dda51ae	0.106601104
71	0x3dd69213	0.1047708
72	0x3e0290e4	0.12750584
73	0x3d23a3fb	0.039951306
74	0xbd3b74cb	-0.04576568
75	0xbe69d8cf	-0.22836612
76	0x3df5034f	0.11963522
77	0x3d700b9b	0.058604818
78	0x3de0f524	0.10984257
79	0x3e23b2e9	0.15986218
80	0x3c941bcf	0.018079666
81	0x3e1c810f	0.15283607
82	0x3dd001fd	0.10156629
83	0x3d63ca74	0.055612996
84	0x3e0e3dbd	0.13890739
85	0xbda63716	-0.081159756
86	0x3bb54390	0.0055317357
87	0x3d9d734e	0.07688008
88	0x3e529fae	0.20568725
89	0x3d473daf	0.04864281
90	0xbdfcc216	-0.123417065
91	0xbe268189	-0.16260351
92	0xbe14426f	-0.14478467
93	0x3d7ef7e0	0.06224811
94	0xbc54b80e	-0.012983335
95	0xbc852c48	-0.016256467
96	0xbe2a81f8	-0.16651142
97	0xbe65fc46	-0.22459516
98	0xbdcd523d	-0.10025451
99	0xbd8adeb7	-0.06780761
100	0xbd05171f	-0.032492753
101	0x3cae00a1	0.021240534
102	0x3bf37edc	0.0074308943
103	0xbd089aea	-0.033350863
104	0x3ce3952d	0.027781093
105	0x3cd0d8e2	0.025494043
106	0xbe1bc457	-0.15211616
107	0xbd227363	-0.039660823
108	0xbc9a7be6	-0.018857908
109	0x3d8d5c16	0.069023296
110	0xbd1c5987	-0.038171317
111	0xbe780e16	-0.24224123
112	0xbe03da6c	-0.1287629
113	0xbd82f866	-0.063950345
114	0x3dc7728c	0.09738645
115	0xbea9ac4b	-0.33139262
116	0xbecc696f	-0.3992419
117	0xbde92c57	-0.1138541
118	0x3e704105	0.23462303
119	0x3dbc0c00	0.09181976
120	0xbe9cf495	-0.3065535
121	0xbe27fdf1	-0.16405465
122	0xbe39ba19	-0.18137397
123	0xbc89f98c	-0.016842626
124	0x3e198a13	0.14994077
125	0x3e6b51c6	0.22980413
126	0x3ec86704	0.39141095
127	0x3e965176	0.29359025
128	0xbc4c8261	-0.012482257
129	0xbc74d008	-0.014942177
130	0xbdbabf9f	-0.0911858
131	0xbe232e6b	-0.15935676
132	0x3db36a94	0.087605625
133	0x3e450057	0.19238411
134	0x3d87b823	0.06626918
135	0xbe963ebf	-0.29344746
136	0xbe27c1a6	-0.16382465
137	0xbd3e77c7	-0.046500947
138	0x3d4699b5	0.04848643
139	0xbcfaf79c	-0.030635647
140	0xbe3727f4	-0.17886335
141	0xbd7e63d9	-0.06210694
142	0x3df75d93	0.12078395
143	0x3daf1469	0.08548815
144	0xbca8a879	-0.020588147
145	0xbd6e3812	-0.05815894
146	0xbd313f39	-0.043273184
147	0x3da0e09e	0.07855342
148	0xbdb3f997	-0.0878784
149	0xbe2764a7	-0.1634699
150	0xbccefdd4	-0.025267519
151	0xbda2d5df	-0.07950949
152	0x3c986074	0.01860068
153	0xbe2b3496	-0.16719279
154	0xbdf89e76	-0.12139599
155	0xbea36809	-0.3191531
156	0x3e1a0966	0.15042648
157	0xbe15c8c1	-0.14627363
158	0xbe31055e	-0.17287204
159	0xbe307a0a	-0.17234054
160	0x3a0a0806	0.0005265478
161	0x3e3586e2	0.17727235
162	0x3cd9cb43	0.02658618
163	0xbd340d61	-0.04395807
164	0xbe0f638c	-0.14002818
165	0xbd8691b6	-0.06570761
166	0xbd2bb3fb	-0.04191969
167	0x3d5442b2	0.051821418
168	0x3de9d6fb	0.114179574
169	0x3c0f26af	0.00873725
170	0xbdb80667	-0.08985596
171	0xbe4f69af	-0.20255159
172	0xbd036386	-0.032077335
173	0x3cab96c1	0.020945909
174	0x3d8c19fc	0.068408936
175	0x3e158b87	0.14604007
176	0x3ddd1f23	0.107969545
177	0x3d803d3f	0.06261682
178	0xbdbbc80b	-0.091690145
179	0xbba5f8e9	-0.005065073
180	0x3e04b625	0.12960108
181	0x3df76cf7	0.1208133
182	0x3d07c3de	0.033145778
183	0x3e68a712	0.22719982
184	0x3d153694	0.036429003
185	0x3e586018	0.21130407
186	0x3e584752	0.21120957
187	0xbd6be1bd	-0.057588328
188	0xbe2e6960	-0.17032385
189	0x3ca50242	0.020142678
190	0x3e35d330	0.17756343
191	0x3e4833ab	0.1955096
192	0x3de36a10	0.11104214
193	0x3daf1f8e	0.085509405
194	0x3c84de09	0.016219156
195	0xbe5e53c4	-0.21711642
196	0x3ce2f94b	0.027706763
197	0x3d9fbe65	0.07799987
198	0x3e301e53	0.17199068
199	0xbd157701	-0.036490444
200	0xbdbf9fd0	-0.09356654
201	0xbe886c09	-0.26644924
202	0xbe8f3bf0	-0.27975416
203	0xbee4d865	-0.44696346
204	0xbeaaec04	-0.3338319
205	0xbe958409	-0.29202297
206	0xbebf85db	-0.3740681
207	0xbe0a00bc	-0.13476843
208	0xbda162ca	-0.07880171
209	0xbe8dd8e8	-0.2770455
210	0xbe963f33	-0.29345092
211	0xbd932d9c	-0.07186434
212	0xbccb9bc6	-0.024854552
213	0x3d3227be	0.043494932
214	0x3d16e42a	0.036838688
215	0x3e036b34	0.12833863
216	0xbc2364d0	-0.009972766
217	0x3cfbd735	0.030742267
218	0x3db590ed	0.08865533
219	0x3e28fb46	0.16502103
220	0x3d60ebff	0.054912563
221	0x3d8920c6	0.06695704
222	0x3de6705f	0.11251902
223	0x3dc9e276	0.09857647
224	0x3cb2ec0d	0.021841073
225	0x3c8091a7	0.015694452
226	0xbe79f589	-0.2441007
227	0xbeaae12f	-0.33374926
228	0xbea5c591	-0.32377294
229	0xbe3e8341	-0.18604757
230	0x3c59096b	0.013246874
231	0xbe5f3710	-0.21798348
232	0xbe45f2e8	-0.19330943
233	0xbe4da5ae	-0.20082733
234	0xbe7f2006	-0.2491456
235	0xbcef6bc5	-0.029226193
236	0xbdaa99e1	-0.08330131
237	0xbe0eb107	-0.13934718
238	0xbe1e07d2	-0.1543267
239	0x3dee9735	0.11649934
240	0x3d0aaaf5	0.033854444
241	0x3d5d1a10	0.053979933
242	0xbd739331	-0.059466545
243	0xbd26d49c	-0.040730104
244	0x3df07658	0.11741322
245	0x3dc6c888	0.09706217
246	0x3e01daae	0.12681076
247	0x3db5d1ec	0.0887793
248	0x3d533549	0.05156449
249	0x3d3ab820	0.04558575
250	0x3ace5b9a	0.0015743852
251	0xbc333e7b	-0.0109401895
252	0xbd8c8610	-0.06861508
253	0xbca792c9	-0.020455735
254	0xbde504f2	-0.11182584
255	0xbde6d3a0	-0.11270833

conv2.bias f4 [20]
0	0xbd9d5b9f	-0.07683491
1	0xbdfdfec2	-0.12402107
2	0xbd2aa3ab	-0.041659992
3	0xbe600a6a	-0.21878973
4	0x3d859284	0.06522086
5	0xbdfc02dd	-0.12305234
6	0x3d2bc3ab	0.04193465
7	0x3d592345	0.05301215
8	0xba4c1554	-0.00077851606
9	0xbd4a5658	-0.04939875
10	0xbdafecde	-0.08590101
11	0xbc52c2ac	-0.012863796
12	0x3d9f3a07	0.0777474
13	0x3d1394d2	0.036030598
14	0x3d759df5	0.059965093
15	0xbe12f297	-0.14350353
16	0x3db5aa25	0.08870343
17	0xbcbaf59d	-0.022822196
18	0x3d5738d2	0.052544422
19	0x3b1e7902	0.0024181013

fc1.weight f4 [160, 320]
0	0xbe2b35a6	-0.16719684
1	0x3d0f91bc	0.035051093
2	0xbd3bd8e2	-0.045861132
3	0x3dc2b08c	0.0950633
4	0xbdeb8203	-0.11499407
5	0xbdb603d0	-0.08887446
6	0x3c248921	0.01004246
7	0xbce3d766	-0.02781267
8	0x3e7c2fa8	0.24627554
9	0x3dead1be	0.114657864
10	0xbcd344a7	-0.025789572
11	0x3d12fb0c	0.03588395
12	0x3e009e3d	0.12560363
13	0xbe5f37fd	-0.21798702
14	0xbe9ad561	-0.3024092
15	0xbcb20eba	-0.021735538
16	0x3b6d785d	0.0036235072
17	0x3e0d12aa	0.13776651
18	0x3d5a2db3	0.05326624
19	0xbe032b85	-0.1280957
20	0x3df06c50	0.11739409
21	0xbbe3d883	-0.0069533004
22	0xbe4e9705	-0.20174797
23	0xbe82596c	-0.25458848
24	0x3e5acf2b	0.21368091
25	0xbd62fb31	-0.055415336
26	0xbe07e0e2	-0.1326938
27	0xbe41a460	-0.1891036
28	0xbda8e370	-0.08246505
29	0x3d4eb94e	0.05046969
30	0xbc974349	-0.018464701
31	0x3e0331d2	0.12811974
32	0x3c21424a	0.009842465
33	0x3df0856e	0.117442
34	0xbd6151e1	-0.055009726
35	0xbda67932	-0.08128585
36	0x3e369518	0.17830312
37	0xbddcdfea	-0.10784896
38	0xbd948bd6	-0.07253234
39	0x3d75ca9b	0.060007673
40	0x3cdb4d71	0.026770325
41	0xbdbad60a	-0.09122856
42	0xbea8cc1a	-0.32968217
43	0xbe66a15c	-0.22522491
44	0x3e5e3765	0.21700819
45	0xbd34af12	-0.044112273
46	0xbe904ae6	-0.28182143
47	0xbe10998a	-0.1412107
48	0xbdadaef1	-0.08480633
49	0x3d91ba15	0.071155705
50	0xbd0f99a2	-0.035058625
51	0xbe8840cb	-0.26611933
52	0x3de045cb	0.10950812
53	0xbda4eba0	-0.080527544
54	0xbdaf235f	-0.085516684
55	0xbe1d5fd1	-0.15368582
56	0xbe53d2b5	-0.20685847
57	0xbdfd7ef0	-0.12377727
58	0xbdcc315a	-0.099703506
59	0xbe66ff6f	-0.22558378
60	0xbc9a8d87	-0.018866314
61	0x3e3321eb	0.17493407
62	0xbeae4830	-0.3403945
63	0xbe8331a3	-0.25623807
64	0xbdec3b1f	-0.11534714
65	0xbcdae1f3	-0.02671907
66	0x3dcfdedd	0.1014993
67	0x3ddd960a	0.10819633
68	0xbe852054	-0.26001227
69	0xbd9fed77	-0.07808965
70	0x3dd383dc	0.103278846
71	0xbe087a5b	-0.13327925
72	0xbc821bc6	-0.015882384
73	0x3d8f46e0	0.0699594
74	0xbdae35cc	-0.08506355
75	0xbdb68a26	-0.089130685
76	0xbdd9daa1	-0.10637403
77	0x3e58a02c	0.2115485
78	0xbda3f414	-0.080055386
79	0xbe0c955b	-0.1372885
80	0xbdb868d3	-0.09004369
81	0x3e4771b9	0.19476976
82	0x3de9611f	0.113954775
83	0xbe2c5b34	-0.16831666
84	0x3e34c578	0.17653453
85	0x3d27b42f	0.04094332
86	0x3d8b2894	0.06794849
87	0xbe318826	-0.17337093
88	0x3db16f8c	0.08663854
89	0xbca19667	-0.019725038
90	0xbdddb7cb	-0.10826071
91	0xbe483d5a	-0.19554654
92	0x3e5fa0ad	0.21838637
93	0xbd064c0e	-0.032787375
94	0xbe18f324	-0.14936501
95	0xbe6d5cc7	-0.23179923
96	0xbf1884f6	-0.5957788
97	0x3ca25e89	0.019820469
98	0x3ddb0726	0.10694723
99	0xbdc8ee5e	-0.0981109
100	0x3e25e957	0.16202293
101	0x3db1695e	0.08662675
102	0x3da6086b	0.08107074
103	0xbddd6124	-0.10809544
104	0x3d9f36ba	0.0777411
105	0x3d1bb253	0.03801186
106	0x3d15c199	0.036561582
107	0xbd90f085	-0.070771255
108	0x3d263495	0.04057749
109	0x3ea3435f	0.31887338
110	0xbea4c73b	-0.3218325
111	0xbe823e48	-0.25438142
112	0x3e2761a2	0.16345838
113	0xbb5d2e89	-0.003374966
114	0xbe9e3ef2	-0.30907398
115	0xbdc54044	-0.09631398
116	0x3e364a06	0.17801675
117	0x3d83963d	0.0642514
118	0xbcf44641	-0.029818656
119	0xbe340186	-0.17578706
120	0xbe831bc1	-0.25607112
121	0xbc9bd415	-0.019022027
122	0xbd49eb8f	-0.04929691
123	0xbb110fc4	-0.0022134641
124	0x3cb5b4c8	0.02218093
125	0x3e26eadc	0.16300529
126	0xbd1dae72	-0.038496442
127	0x3d213493	0.03935678
128	0x3d048ec0	0.0323627
129	0xbf189241	-0.59598166
130	0xbe23a762	-0.1598182
131	0x3b223127	0.0024748535
132	0x3df576dd	0.11985562
133	0x3dc40e46	0.09573035
134	0x3dad9189	0.08475024
135	0x3d22549c	0.03963147
136	0xbdd0e83e	-0.10200547
137	0xbc637499	-0.0138827795
138	0xbdc8f186	-0.09811692
139	0x3de13df8	0.10998148
140	0x3d4ea24c	0.050447747
141	0x3daf0122	0.08545138
142	0x3d8fff4a	0.070311144
143	0x3db05f81	0.08611966
144	0xbe2cd67e	-0.16878697
145	0xbce7d6f7	-0.028300745
146	0xbd2936f9	-0.04131219
147	0xbe8808b6	-0.26569146
148	0xbe88bd7d	-0.26707068
149	0x3c03e889	0.008051046
150	0x3ce1193e	0.027477857
151	0xbd7add34	-0.061246112
152	0xbd5da41f	-0.054111596
153	0x3d4a6766	0.049415015
154	0x3b762bfc	0.0037562838
155	0xbe816eae	-0.25279754
156	0x3d86407d	0.06555269
157	0x3d764774	0.060126737
158	0x3e0634e7	0.13106118
159	0xbe0e3739	-0.13888253
160	0x3dd83131	0.105562575
161	0xbdcbfa61	-0.09959865
162	0xbe10ecc6	-0.14152822
163	0xbdc95e6d	-0.098324634
164	0x3dd71c9f	0.10503506
165	0xbe3f6169	-0.18689503
166	0xbd2e88e4	-0.042611018
167	0xbda3bbbc	-0.07994792
168	0x3e29b8cc	0.165744
169	0xbc11d19a	-0.008900071
170	0xbe2d4f53	-0.16924791
171	0x3cebbc1e	0.028776225
172	0xbd4832e2	-0.04887665
173	0xbe034a5f	-0.12821339
174	0xbd85af21	-0.06527544
175	0x3ddac79f	0.10682606
176	0xbd8a1a1d	-0.06743262
177	0xbed8139c	-0.4220246
178	0xbea8ad33	-0.3294464
179	0xbe1952a2	-0.14972928
180	0x3b0df460	0.0021660551
181	0x3e4a77e0	0.19772291
182	0xbd9f97ff	-0.07792663
183	0x3d28af2d	0.041182686
184	0xbe832781	-0.25616077
185	0xbe1271e3	-0.14301257
186	0x3da82436	0.08210032
187	0x3e11e15d	0.14246126
188	0xbea71f93	-0.32641277
189	0xbe17455c	-0.14772552
190	0x3dd62e59	0.10458059
191	0x3c844e9b	0.016150763
192	0xbe94efd6	-0.2908923
193	0xbec4756d	-0.3837084
194	0xbe1e1414	-0.15437347
195	0xbde6d2fc	-0.11270711
196	0x3e150605	0.14553078
197	0x3d9d2559	0.07673139
198	0x3d385506	0.04500296
199	0xbda230e4	-0.079194814
200	0x3daed014	0.085357815
201	0xbe2b61b7	-0.16736494
202	0x3de72028	0.1128543
203	0x3d8f14cb	0.06986388
204	0xbe6eb47d	-0.23311038
205	0xbe33b8b4	-0.17550927
206	0xbc69e15e	-0.014274923
207	0x3e6e213b	0.23254864
208	0x3e913838	0.28363204
209	0xbdddbf51	-0.10827506
210	0x3e0433c6	0.12910375
211	0xbe108b6d	-0.14115687
212	0xbe36db80	-0.1785717
213	0x3e0c5edf	0.13708065
214	0x3e211843	0.15731911
215	0x3dc19f99	0.09454269
216	0xbdcc7464	-0.09983137
217	0xbbf00ab2	-0.0073254937
218	0x3be51ba7	0.006991822
219	0xbd9af377	-0.075659685
220	0xbe195703	-0.14974599
221	0x3d247280	0.04014826
222	0x3d8cb838	0.068710744
223	0xbe294de8	-0.16533625
224	0xbda3183f	-0.07963609
225	0xbdb65295	-0.0890247
226	0x3ce11171	0.027474137
227	0xbb57e8ad	-0.0032945082
228	0xbdcd0ef5	-0.100126185
229	0xbd8ae1a5	-0.067813195
230	0xbddb4815	-0.10707108
231	0xbe20fe04	-0.157219
232	0xbd6ab581	-0.057302002
233	0x3e3ae923	0.18252997
234	0x3d4d9870	0.050194204
235	0xbe669625	-0.22518213
236	0x3d68f1f6	0.056871377
237	0x3ccc3a16	0.024930041
238	0xbcb5277a	-0.02211355
239	0xbe8ad183	-0.2711297
240	0xbc38c49e	-0.011277346
241	0x3c703258	0.01466044
242	0x3d8998c3	0.0671859
243	0xbdc79de6	-0.097469136
244	0xbe0b65c8	-0.13613045
245	0x3d61ff20	0.055174947
246	0x3d4284e3	0.047490012
247	0xbd75f776	-0.06005045
248	0xbd8d73dd	-0.06906865
249	0x3da64e60	0.081204176
250	0x3ce25618	0.027628943
251	0xbe13f99f	-0.14450692
252	0xbdb11ced	-0.08648095
253	0x3d82fd6e	0.06395994
254	0xbdf3d6e9	-0.11906225
255	0xbea69cdd	-0.32541552

fc1.bias f4 [160]
0	0xbdebaf25	-0.115080155
1	0x3d11044f	0.0354045
2	0xbe01ed99	-0.12688293
3	0x3d2371de	0.039903514
4	0xbdb162d4	-0.08661428
5	0x3e87ecbe	0.26547807
6	0xbcacc81b	-0.021091511
7	0xbd351477	-0.04420897
8	0x3c72394e	0.01478417
9	0x3cd1b24a	0.02559771
10	0x3d7dc7cf	0.06195813
11	0x3ce0c52e	0.027437773
12	0x3c26aba9	0.010172763
13	0x3e744aba	0.23856631
14	0xbdda4b43	-0.10658886
15	0x3e147371	0.14497162
16	0x3dd5b9c9	0.10435826
17	0xbc9aa8d9	-0.018879341
18	0x3d4bcffd	0.0497589
19	0x3ebf71eb	0.373916
20	0xbc60cada	-0.013720239
21	0xbe099e27	-0.13439237
22	0xbe257d50	-0.16161084
23	0xbd6bbf09	-0.057555232
24	0x3e040db7	0.12895857
25	0x3ac63362	0.0015121514
26	0xbd73d46a	-0.059528746
27	0x3df8fc2a	0.121574715
28	0xbe92e97f	-0.28693768
29	0xbe15ddb9	-0.14635362
30	0xbdabc3e6	-0.08386974
31	0xbe0aea1a	-0.13565865
32	0x3d813cff	0.06310462
33	0xbde752cc	-0.11295089
34	0xbdb055c0	-0.086101055
35	0xbe15c4d6	-0.14625868
36	0x3e8a8d41	0.27060893
37	0x3dbbc677	0.091687135
38	0x3d138cd6	0.036022983
39	0xbdc42b6f	-0.09578597
40	0xbdb24f27	-0.08706503
41	0x3e73ab4c	0.23795813
42	0x3dcf3a20	0.10118508
43	0x3e164630	0.14675212
44	0xbdb08238	-0.08618587
45	0x3eb93fa7	0.36181375
46	0xbced47e4	-0.028964944
47	0x3cb1384a	0.021633286
48	0xbdf311e2	-0.11868645
49	0xbdab5c5f	-0.08367228
50	0xbcab239c	-0.020891003
51	0xbe210596	-0.15724787
52	0x3dbe20fd	0.09283636
53	0x3e4b8dda	0.19878331
54	0xbdb507c8	-0.08839375
55	0xbd19e34c	-0.037570283
56	0x3d7b1d8c	0.061307475
57	0x3ba5e2d4	0.0050624404
58	0x3cb6bc12	0.022306476
59	0xbd7fc032	-0.06243915
60	0xbd95467c	-0.072888345
61	0x3dce3dbb	0.10070368
62	0xbe0760a1	-0.13220455
63	0xbdbdee8a	-0.09274013
64	0x3d4df05c	0.050278053
65	0xbd322b10	-0.0434981
66	0x3e0af3a8	0.1356951
67	0x3dd140ec	0.10217461
68	0xbe10ca3a	-0.14139643
69	0xbd1e72b1	-0.038683597
70	0xbda0d9f0	-0.07854068
71	0x3e447f17	0.19189106
72	0x3e1ab487	0.15107928
73	0xbdc36f0a	-0.095426634
74	0xbd7ae0cc	-0.06124954
75	0x3e3cc558	0.18434656
76	0x3c18fb9b	0.009337331
77	0xbd32f154	-0.04368718
78	0xbe3eb2df	-0.18622921
79	0x3e803cfa	0.2504652
80	0x3d28aa6a	0.041178145
81	0xbc8ab10a	-0.016930122
82	0xbd59f242	-0.05320955
83	0xbe1e7b03	-0.15476613
84	0xbd588115	-0.052857477
85	0xbd835013	-0.06411757
86	0xbd94c96e	-0.07264982
87	0xbe0162c7	-0.12635337
88	0x3db69b9a	0.089163974
89	0xbb5f8c7d	-0.0034110837
90	0xbd8307db	-0.06397983
91	0x3e1576bd	0.14596076
92	0xbe199025	-0.14996393
93	0xbda452f8	-0.080236375
94	0xbd9e8387	-0.077399306
95	0xbd692afa	-0.05692575
96	0xbd8c1b8b	-0.06841191
97	0x3d7f9cbc	0.062405333
98	0x3eaa55ca	0.33268577
99	0x3ea16452	0.3152185
100	0xbd303073	-0.043014955
101	0x3cefdede	0.029281076
102	0xbe124cf8	-0.14287174
103	0xbc92258d	-0.017840171
104	0xbe545f90	-0.20739579
105	0xbe0b93f3	-0.13630657
106	0xbd8bfb57	-0.06835049
107	0x3ea948e7	0.33063433
108	0xbdfd4e51	-0.12368453
109	0x3da510b0	0.080598235
110	0x3d6720f3	0.056427907
111	0x3dc76acd	0.097371675
112	0xbd3a7604	-0.045522705
113	0xbb9cf5a3	-0.0047900244
114	0x3da91203	0.082553886
115	0xbbc56497	-0.006023954
116	0x3e2848ae	0.16433975
117	0x3cd7eeff	0.02635908
118	0xbde54a12	-0.111957684
119	0xbd6fdb60	-0.05855882
120	0xbe08163a	-0.13289729
121	0x3cfd7f56	0.030944508
122	0x3db7b1d1	0.08969463
123	0xbdc9c979	-0.09852881
124	0xbdd2417c	-0.102663964
125	0x3e49b6f9	0.19698705
126	0xbd95b48c	-0.07309827
127	0x3e870a08	0.2637484
128	0xbdbb4540	-0.09144068
129	0xbe21214c	-0.15735358
130	0xbdc3879f	-0.09547352
131	0x3eaf79b9	0.34272555
132	0xbdc99151	-0.0984217
133	0xbbcd5598	-0.006266307
134	0xbd5f300b	-0.054489177
135	0xbc16e511	-0.009209887
136	0x3b777198	0.0037756916
137	0xbd88c79c	-0.066786975
138	0x3cf2e2b8	0.029649124
139	0xbe35317b	-0.17694657
140	0x3c00f8bd	0.007871804
141	0xbe6bb66a	-0.23018804
142	0xbca1b0d4	-0.019737639
143	0x3ca07af0	0.019589871
144	0x3d794930	0.060860813
145	0xbdcd3443	-0.10019734
146	0xbd4694bf	-0.0484817
147	0xbe41d394	-0.18928367
148	0x3e8b2227	0.27174494
149	0xbe30647e	-0.17225835
150	0xbdefdb0b	-0.11711701
151	0x3d70efa3	0.058822285
152	0xbd75dfa1	-0.060027722
153	0x3ce29ee9	0.027663665
154	0x3daa8a74	0.08327189
155	0x3d7e2685	0.062048454
156	0x3e05f01b	0.13079874
157	0xbd06f908	-0.03295234
158	0xbdf8bce2	-0.121454015
159	0xbca64a39	-0.020299064

fc2.weight f4 [16, 160]
0	0x3dd625d7	0.10456436
1	0x3e763b3a	0.2404603
2	0xbde9e8e0	-0.114213705
3	0xbe47eee3	-0.19524722
4	0x3e6d86e0	0.23195982
5	0x3e124eed	0.1428792
6	0x3c7eafe3	0.015544864
7	0x3da22228	0.07916671
8	0x3dac9fa1	0.08428884
9	0x3d58dd48	0.052945405
10	0x3da6dacd	0.08147202
11	0x3e725c00	0.23667908
12	0xbc95f7df	-0.01830667
13	0x3cdc0af4	0.026860692
14	0xbe76c5a3	-0.2409883
15	0xbe9a16c0	-0.30095482
16	0xbe20cfdb	-0.1570429
17	0xbe0337cf	-0.12814258
18	0xbd940b83	-0.07228758
19	0x3e3f3f0e	0.18676397
20	0xbd302768	-0.04300633
21	0x3e2d26de	0.16909358
22	0xbdd2c3bb	-0.10291239
23	0xbe211d05	-0.15733726
24	0xbd3598d0	-0.044335186
25	0x3e1a5027	0.15069638
26	0x3d9a69fc	0.07539746
27	0xbea0562d	-0.31315747
28	0xbea6ac09	-0.32553127
29	0xbe8058ec	-0.25067842
30	0xbdad28be	-0.084550366
31	0x3e0ccd47	0.13750182
32	0x3e51bb62	0.20481637
33	0xbdb01637	-0.08597987
34	0xbe72a2b9	-0.23694886
35	0xbdf50c9d	-0.119652964
36	0x3e033f6e	0.12817165
37	0x3dbbd958	0.091723144
38	0x3d43194f	0.047631558
39	0xbe0b0b5e	-0.13578555
40	0xbd64e7f1	-0.05588526
41	0x3dc6091d	0.09669707
42	0xbe5d04da	-0.21583882
43	0x3e1cab23	0.15299658
44	0xbe67b1f8	-0.22626483
45	0x3e4a2176	0.19739327
46	0xbdb4c816	-0.08827226
47	0xbdb4bf06	-0.08825497
48	0x3c3ba73b	0.011453445
49	0x3e2d70cd	0.16937561
50	0xbd996562	-0.0749004
51	0xbd8a66d4	-0.06757894
52	0x3e32454a	0.17409244
53	0xbe66c8d2	-0.22537544
54	0x3aee38aa	0.0018174846
55	0xbe1234f1	-0.14278008
56	0xbd3c6720	-0.045996785
57	0x3e5ef8f6	0.21774659
58	0x3e90727d	0.28212348
59	0xbc254696	-0.01008763
60	0x3e9de95c	0.30842102
61	0x3db34fbb	0.08755442
62	0x3bb0020c	0.0053713378
63	0x3bf27a35	0.007399822
64	0x3e1f583a	0.15561
65	0xbc9d0444	-0.019167073
66	0xbeae1d1d	-0.34006587
67	0x3d714365	0.058902163
68	0x3d0a3f86	0.033751987
69	0xbe03180c	-0.12802142
70	0x3e214d0b	0.15752046
71	0x3db8e214	0.09027496
72	0x3d70e2ec	0.05881016
73	0xbe14ee54	-0.1454404
74	0xbbbd806e	-0.0057831323
75	0xbde5f45f	-0.11228251
76	0x3e32df5c	0.17468017
77	0xbdbda98a	-0.09260853
78	0xbd5393f3	-0.051654767
79	0x3e1ebfa5	0.15502794
80	0xbd7587e4	-0.05994405
81	0xbd818dd0	-0.06325877
82	0xbddf2d39	-0.108972974
83	0xbe22eff8	-0.15911853
84	0x3dd36cf0	0.103235126
85	0xbcc68fd2	-0.0242385
86	0xbb2c30a4	-0.002627411
87	0x3e12d029	0.1433722
88	0x3e0eea12	0.13956478
89	0xbdf744a6	-0.120736405
90	0xbe83b2f1	-0.2572246
91	0xbe4034a0	-0.18770075
92	0xbe0fbbe1	-0.14036514
93	0xbdbaf692	-0.09129061
94	0x3dd8a0d6	0.10577552
95	0x3d6df705	0.058096904
96	0xbe680e40	-0.22661686
97	0xbd9964b3	-0.0748991
98	0x3e6331ba	0.22186938
99	0x3e08b66c	0.13350838
100	0x3e15d3e6	0.14631614
101	0xbdf6e7dc	-0.120559424
102	0x3e3089ad	0.17240019
103	0xbdb7839f	-0.089606516
104	0xbe3ed8d7	-0.18637405
105	0xbde9e055	-0.11419741
106	0x3e329c42	0.1744242
107	0x3da44dd6	0.080226585
108	0xbe2f9f66	-0.1715065
109	0xbe51d7db	-0.20492499
110	0xbd4a8bab	-0.049449604
111	0xbe1a6707	-0.15078364
112	0x3e7aaf7f	0.24481009
113	0x3a95990b	0.0011413408
114	0xbec6c3f2	-0.3882137
115	0x3d855622	0.06510569
116	0xbe9d15be	-0.3068065
117	0x3e341dda	0.17589512
118	0xbd3a655a	-0.045506813
119	0xbe57cbd5	-0.2107385
120	0x3d8906ed	0.06690774
121	0xbdbb6fb3	-0.09152164
122	0xbe007a41	-0.12546636
123	0x3d33ebba	0.04392598
124	0x3e9811ac	0.29700983
125	0x3db7a5e8	0.08967191
126	0x3d3b6ea8	0.045759827
127	0x3cdc9063	0.026924318
128	0x3e2a6fce	0.16644213
129	0xbe063de0	-0.13109541
130	0x3cb27da8	0.021788433
131	0x3e379ecd	0.17931671
132	0xbe87583c	-0.26434505
133	0x3e616ce9	0.22014202
134	0xbd60fa76	-0.05492636
135	0x3e367490	0.17817903
136	0x3e79d80a	0.24398819
137	0xbe058e87	-0.13042651
138	0x3e85dff4	0.26147425
139	0x3de29b89	0.11064822
140	0x3d96270d	0.07331667
141	0xbe170217	-0.14746891
142	0x3dfd9ff2	0.12384023
143	0xbe284fcd	-0.16436692
144	0xbd95ddb6	-0.07317679
145	0x3e85accf	0.26108405
146	0x3e58211b	0.21106379
147	0xbe5bdf3c	-0.21471876
148	0x3e03c408	0.12867749
149	0xbe383bfd	-0.17991634
150	0xbe076a4f	-0.13224147
151	0x3e2b59e4	0.1673351
152	0x3da0cd01	0.078516014
153	0x3df574a2	0.119851366
154	0x3e0f2fb8	0.13983047
155	0xbe375a19	-0.17905463
156	0xbe7ed4e9	-0.24885906
157	0xbdf21bfa	-0.11821742
158	0xbe30ec92	-0.17277744
159	0x3e1a99e2	0.15097764
160	0x3decffb6	0.115722105
161	0x3e9830c1	0.29724696
162	0xbdb34a37	-0.0875439
163	0xbd864d7e	-0.06557749
164	0x3da94994	0.08265987
165	0x3e8fcaf6	0.28084534
166	0xbe1f3a29	-0.1554953
167	0xbc1ce971	-0.009577141
168	0x3d458357	0.04822096
169	0xbde1a322	-0.11017443
170	0xbd1e62dc	-0.0386685
171	0x3e785a25	0.24253137
172	0xbe3cdfee	-0.18444797
173	0x3c2e1784	0.010625724
174	0xbe765212	-0.24054745
175	0xbe5b2c58	-0.21403635
176	0xbe98b46d	-0.29825154
177	0x3b75021a	0.0037385286
178	0x3da7942c	0.081825584
179	0x3e31958f	0.17342208
180	0xbe460f08	-0.19341671
181	0xbdd7bad8	-0.105336845
182	0xbd8e8a4b	-0.06959971
183	0xbdfb0134	-0.12256089
184	0xbc9f6dd8	-0.019461557
185	0xbe187573	-0.14888553
186	0xbe3b5886	-0.18295488
187	0xbe0f4874	-0.13992482
188	0x3d6f8028	0.05847183
189	0xbdf36a31	-0.11885489
190	0xbde7db2b	-0.113211
191	0xbd2c52e1	-0.042071227
192	0x3dd6e3c0	0.104926586
193	0xbdbd066b	-0.0922974
194	0xbd46f36f	-0.048572
195	0xbe6dbff2	-0.23217753
196	0x3ecba6d4	0.39775717
197	0x3eac82b1	0.3369346
198	0x3ebbdaa6	0.36690253
199	0x3cab4b01	0.020909788
200	0xbdbf3982	-0.093371406
201	0x3e7158b2	0.23568991
202	0xbe1fecf2	-0.15617731
203	0x3eb69bee	0.3566584
204	0x3dac2781	0.08405972
205	0x3e5137b3	0.20431404
206	0x3e670234	0.22559434
207	0x3c309076	0.01077663
208	0xbcf14c23	-0.02945525
209	0xbe33e4f5	-0.17567809
210	0xbd8684a9	-0.06568272
211	0xbe39141a	-0.18074074
212	0x3d7bbfe5	0.0614623
213	0xbda82946	-0.08210997
214	0xbd236e48	-0.039900094
215	0xbe0b679b	-0.13613741
216	0xbdd41e5d	-0.10357354
217	0x3e8d37ca	0.27581626
218	0x3dc29909	0.095018454
219	0x3d3f9ba1	0.04677928
220	0xbc8587a6	-0.016300034
221	0x3e6fdf6e	0.23425075
222	0x3dac8cab	0.08425268
223	0xbd499075	-0.04921003
224	0x3e7b1179	0.24518384
225	0x3d2923ec	0.041294023
226	0xbcec00e0	-0.028809011
227	0x3e065785	0.13119324
228	0xbd5f284f	-0.0544818
229	0x3e6c8d22	0.23100713
230	0x3e209cd3	0.15684824
231	0x3ec96fc2	0.39343077
232	0xbe2950c6	-0.16534719
233	0xbdda396d	-0.10655484
234	0xbb6d4a18	-0.0036207493
235	0xbdbad9c9	-0.091235705
236	0x3e4f0441	0.20216466
237	0x3e864a56	0.2622859
238	0x3e6850b5	0.22687037
239	0x3e95d25f	0.29262063
240	0xbc3ffc9e	-0.0117179435
241	0xbda15022	-0.07876612
242	0xbe1b78bc	-0.15182775
243	0x3db42cc9	0.087976046
244	0x3e050a1d	0.12992139
245	0xbd2b6f6c	-0.041854307
246	0xbe554885	-0.20828445
247	0x3e2a7320	0.16645479
248	0x3ca6f9cd	0.020382786
249	0xbe4b9ac7	-0.19883262
250	0x3daea973	0.085284136
251	0xbdb4794c	-0.08812198
252	0xbd14b3b4	-0.03630419
253	0x3d7cede0	0.061750293
254	0x3d0be27c	0.03415154
255	0xbe4c3684	-0.19942671

fc2.bias f4 [16]
0	0xbee59683	-0.44841394
1	0x3ec41da3	0.3830386
2	0xbe254007	-0.16137706
3	0x3d74cc21	0.059764985
4	0xbeeb8fd0	-0.46008158
5	0xbd218ecb	-0.03944282
6	0x3ec3689e	0.38165754
7	0xbe88af9f	-0.26696488
8	0xbe3dce1a	-0.18535653
9	0xbf457938	-0.7713809
10	0x3e0d5a67	0.13804017
11	0x3e46f9dc	0.19431251
12	0x3dad6913	0.08467307
13	0xbe411495	-0.18855508
14	0xbeab8cad	-0.33505765
15	0xbe619e78	-0.22033107

fc3.weight f4 [10, 16]
0	0xc00dba46	-2.2144942
1	0xbfd2ad6c	-1.6459174
2	0xc028e539	-2.6389906
3	0xc01c54e7	-2.442682
4	0x3fe896d7	1.8171033
5	0xc007b47f	-2.1203916
6	0xc02dadf2	-2.7137418
7	0xc00c8fc7	-2.1962755
8	0xc01ce8bf	-2.4517057
9	0x3fbea9ad	1.4895531
10	0x401f4c1b	2.48902
11	0x40101a5d	2.251609
12	0xbe952c00	-0.29135132
13	0x3ff8148b	1.9381269
14	0xbf566139	-0.837421
15	0xbfd500df	-1.6640891
16	0x3fe83303	1.8140568
17	0x402c3838	2.6909313
18	0xc01b3e8c	-2.4256926
19	0x40081854	2.1264849
20	0xc00847d4	-2.129384
21	0xc02316fe	-2.5482783
22	0xc00a3077	-2.159208
23	0x4020ff2e	2.515575
24	0x3ff2a7e9	1.8957492
25	0xbfaf291e	-1.3684423
26	0x3fbf489f	1.4944037
27	0x4006148f	2.0950048
28	0xbf9fd039	-1.248542
29	0xc00f45a8	-2.2386265
30	0x3fe04a3f	1.7522658
31	0x3f71b9ce	0.9442414
32	0xbfffe99a	-1.9993165
33	0x4003282f	2.0493276
34	0x3f8c45ea	1.0958836
35	0xc0147341	-2.3195345
36	0xc00833c5	-2.1281598
37	0x3ff9761e	1.9489172
38	0xc01690a2	-2.3525777
39	0xc00e53d8	-2.2238674
40	0x3ff58fb4	1.918448
41	0x402bb159	2.6826994
42	0xbfdbe512	-1.7179282
43	0xbfd6878f	-1.6760119
44	0x3ff48ed5	1.9106089
45	0xc0079064	-2.118188
46	0x3fb975ee	1.4489114
47	0x3fbd33b4	1.4781404
48	0xbff04858	-1.8772078
49	0xbfee213d	-1.8603894
50	0x401abeb5	2.4178898
51	0xbfc4ba70	-1.5369396
52	0x4006822b	2.1016948
53	0xc03874a5	-2.8821194
54	0x400cfde0	2.2029953
55	0xbfb1c4cf	-1.3888186
56	0x3ffc1700	1.9694519
57	0xbff5255c	-1.9152026
58	0xc018bceb	-2.3865306
59	0xbf6522f4	-0.8950646
60	0xc01770fb	-2.3662708
61	0xbff892d5	-1.941981
62	0x40065398	2.0988522
63	0xbebbddac	-0.3669256
64	0x40111966	2.2671752
65	0x40181026	2.3759856
66	0xc02060b9	-2.5059035
67	0xbfedab6d	-1.856794
68	0x3fe71cdf	1.8055686
69	0x3f275fca	0.6538054
70	0x4008c418	2.1369686
71	0x4017cfca	2.3720574
72	0xbfeb648d	-1.8390061
73	0x40088cb7	2.1335886
74	0xc02b3cad	-2.6755784
75	0xbfc94689	-1.5724651
76	0x3fb29575	1.3951861
77	0xbdc97d9d	-0.09838412
78	0xc00188c1	-2.0239718
79	0xc01341c2	-2.3008885
80	0x4024926c	2.571437
81	0xc01bddaa	-2.4354043
82	0xbf8f82d3	-1.1211799
83	0xbf8ebb8c	-1.1150985
84	0x3fc4c54f	1.5372714
85	0x4010b13e	2.260818
86	0x3fd583db	1.6680864
87	0xbfd354f3	-1.65103
88	0x400fc36a	2.2463021
89	0xbf99ad40	-1.2005997
90	0x40269723	2.6029747
91	0xc00f0a0c	-2.2349882
92	0xbff6585a	-1.9245713
93	0xbf790f57	-0.9728903
94	0xc010c333	-2.261914
95	0x40164c46	2.3484054
96	0x4002eb83	2.0456245
97	0x3efb601e	0.4909677
98	0x402d2e8f	2.7059667
99	0xbfeb7ca2	-1.839741
100	0x402be427	2.6858003
101	0xc00f1af0	-2.2360191
102	0xbfbc2e7e	-1.4701688
103	0x402363c2	2.5529637
104	0xbf72fec4	-0.9491999
105	0x3fca1878	1.5788717
106	0x401a3fb0	2.4101372
107	0xc01eca6f	-2.4811056
108	0x3fe12b5c	1.7591357
109	0x401df20b	2.4678981
110	0x400f5f97	2.2402093
111	0x401e64cf	2.4749029
112	0xbfaee8ac	-1.3664756
113	0xc0024c89	-2.0359213
114	0x40239c7c	2.556426
115	0x3fe7e873	1.8117813
116	0xc0019477	-2.0246866
117	0x3fe5a4ac	1.7940879
118	0xbfdd7b47	-1.7303246
119	0x401b519a	2.4268556
120	0xbf8ce867	-1.1008424
121	0x4014eb6c	2.326869
122	0xbfdd2c72	-1.7279189
123	0x3fc14672	1.5099623
124	0xc027e4ee	-2.6233478
125	0xbf640096	-0.89063394
126	0xbfffef02	-1.9994814
127	0xbfc68886	-1.5510414
128	0xbfe6336e	-1.7984445
129	0xc0132a37	-2.2994516
130	0xc008e06c	-2.1386976
131	0x3ff0e1dd	1.8818928
132	0xbfae4b22	-1.3616679
133	0x3fcce52c	1.6007438
134	0x3ff1ab56	1.8880413
135	0x3fa2c725	1.2717024
136	0xc017bcb1	-2.3708918
137	0xbff588c7	-1.9182366
138	0xbf7a77b8	-0.97838926
139	0xbfae698a	-1.3625958
140	0x401f9886	2.4936843
141	0x3f8b25fa	1.0870965
142	0x401aca3d	2.4185936
143	0x4010959f	2.2591321
144	0x3ff17fdc	1.8867145
145	0x3f9fa550	1.2472324
146	0x3ffb9e90	1.9657764
147	0x400728c5	2.1118634
148	0x400c9a5d	2.1969216
149	0x3fe76be2	1.8079798
150	0xbf23223d	-0.6372412
151	0xbfdc6c07	-1.7220467
152	0x3f916cd0	1.1361332
153	0xc0095bc3	-2.1462257
154	0xbfdd768d	-1.7301804
155	0x4010bd1b	2.261542
156	0x40118901	2.273987
157	0x40209700	2.5092163
158	0xbfe243b7	-1.7676915
159	0xbfdf871b	-1.7463106

fc3.bias f4 [10]
0	0xbe64e5ac	-0.22353238
1	0xbdb00d05	-0.08596233
2	0x3db308c4	0.08741906
3	0x3e00354c	0.12520331
4	0x3c978af2	0.018498871
5	0x3b5d93dd	0.0033810057
6	0x3e7d9ee0	0.24767637
7	0x3d691e9e	0.056913964
8	0x3d9103a5	0.07080773
9	0x3e38ee5b	0.18059675
