model/MNIST_16_net.pt (torch, 241150 bytes, 10 tensors)

conv1.weight f4 [10, 1, 5, 5]
00000000: 59d8 a3bd e79f 23be fdd7 37be 3a8c 60be
00000010: a7cd 8cbe 2fd8 0c3e ffd2 303d 6cfb 1bbe
00000020: 9caf 67bd 42ee b23c 8206 4e3e 2ab4 d33d
00000030: f938 b83d 8ae9 5b3e bd93 8c3e be82 01be
00000040: 8fbe 593e abee 683e 1b0d 1c3e 59aa 1abe
00000050: acac 0ebd 796b 86bd f7a5 65bd b0cd ccbd
00000060: 549e ff39 f308 ca3d 2691 8f3d 3d9f ee3d
00000070: c9a9 373e da39 cdbd db28 983d 25a5 a63d
00000080: bc0c 0ebe 04aa 393c beea a13d c0eb 81bd
00000090: 94a0 d03d 7689 4f3b 3a55 913d cd8a d23d
000000a0: 22fd af3d fb9c 0b3e a686 903d 3344 c9bd
000000b0: e4f1 32bd 3ab4 76bd 9e30 24bd 89a8 22be
000000c0: c7a0 c6bd 098c 14be 2a01 f13d 1128 97bd
000000d0: 34b2 e33d 425e 22be ec26 a9be 63a9 82bd
000000e0: 4b05 083c 8910 b73d c721 913e 6832 bbbd
000000f0: 6d9d 3bbe 1731 89bd cd5f 113e ddc2 6e3e
00000100: ee68 973e c3ea 473a ac58 0ebe 855e 6cbe
00000110: f3b3 f73d b0fa 0b3e 0af1 80bd 79e7 cebe
00000120: f10c 85be c570 a6be 7ee3 5fbe 49c3 9abe
00000130: cb2a abbe 658e dabe 2ca1 e5b8 0fd9 293e
00000140: d7e4 683e e9e4 8fbe 6197 05bf 8f30 cd3d
00000150: 3743 1c3e eb10 683e eb04 e7bd a9ba 0abf
00000160: 2868 9bbd 2485 a13d 2fd0 2e3e 7889 15bd
00000170: 57cc 83be d2ee 53be a024 363e 8214 9c3e
00000180: a1b9 abbd 4503 32be 02f9 d2bd bca7 213e
00000190: 018f 6cbd 0ac0 c4bc 54dd 1f3e 583b 3d3e
000001a0: c280 873d 70b7 333e 1d93 3a3d a982 1f3e
000001b0: 6c01 fdbd 1ec4 1bbe b1ea 133e 4234 a73d
000001c0: fe6f babe 21f5 f3bd cb71 d7bd 7b64 6ebe
000001d0: f6d7 e0be f788 95be bf58 a13d a99a 063e
000001e0: 5c0a 2dbe c018 52be f198 5b3e 1170 3e3e
000001f0: 26f0 bc3d 3eab 3a3d 2a0f 7cbc ee30 743d
00000200: f813 a3bd d530 5fbe 58c3 64be cf81 99be
00000210: 98bc c1be 5eaa 98be 9f57 5abe 5a81 9abe
00000220: 0494 4b3c 620c c1bd df03 423d 946f a03d
00000230: 0dd6 0ebd d158 c93b 8731 8bbd 7ad5 e13c
00000240: e267 773e 0e19 88bd f755 0cbe 7eb2 283e
00000250: 187f 2a3e 7f16 403e 3ba2 ec3d 8c38 cc3d
00000260: f665 90bd c09b 50be e906 99be 9caf 643e
00000270: 7365 893d 4f54 11bb eb89 acbe 2348 78bd
00000280: 654a 933e 4b3d f3bd efdb 4abd 1704 36bf
00000290: 61a0 68bd d7fd 1f3e 57df dfbd 1409 4ebe
000002a0: ab48 fbbd 5081 4abe cc89 02bd a62d 4fbe
000002b0: dba4 18bb 67ce ad3c 337d dfbc e667 823d
000002c0: 9d5c 443b 8fe2 543e 2534 253d eea3 403e
000002d0: 2b01 edbd ef91 773e 057c cc3a 716f 283e
000002e0: 5a54 fb3a 60f0 acbe b2ad 4f3d f040 563e
000002f0: 8b85 8c3e 5cc1 563c eba0 e2be d5ec 9ebe
00000300: a9e2 7abe ae7e ffbd 2729 cabe e359 dcbd
00000310: bbc1 8cbe 1d16 bebe 1740 d5be 786b 67be
00000320: 0b54 e23d f8fe be3c ee9a 3a3d 4295 b8bd
00000330: 093b 023d aeae 1b3d 1d43 e13b c7f6 553e
00000340: c1cf 31be 083a 82be bdda af3b cfc6 d13d
00000350: aa5b 603e cf33 0cbc 8158 89be d487 01be
00000360: 075d c43d 5918 513e 3419 d03d 6e09 ccbd
00000370: 4c10 8cbe 8841 753d bbf7 dc3d 711a b23d
00000380: 79e7 803d 76e0 493d 9354 823d e917 f1bd
00000390: c399 20be a074 093d 62c3 923d e5de 963d
000003a0: a351 d8bc 4770 99be 8aa9 8bbc 6dc2 35bd
000003b0: 1852 8e3e 14fa 1bbe 30e5 87be 1b3a f8bc
000003c0: 4e71 9d3e 3a03 333d 1dd8 0cbf ae2b d1bd
000003d0: a1c2 9f3d aea9 aabe 965e e7be 93c1 4bbe
000003e0: 8072 0d3e e4f4 c03d
-0.080002494 -0.15978967 -0.17953487 -0.21928492 -0.2750065 0.13754342 0.04316997 -0.15232629
-0.05656396 0.021842126 0.2011967 0.10337098 0.08995242 0.21475807 0.27456465 -0.1264753
0.21264099 0.22747295 0.15239374 -0.15104045 -0.03483264 -0.065634675 -0.05606648 -0.10000169
0.00048755354 0.09864988 0.07010107 0.11651466 0.17935862 -0.100208 0.074296676 0.081369676
-0.13872045 0.011332039 0.07906102 -0.06343794 0.10186878 0.0031667626 0.07096334 0.102803804
0.08593203 0.13634102 0.07056932 -0.09827461 -0.043687716 -0.06023047 -0.040085427 -0.15884604
-0.096986346 -0.14506544 0.117678 -0.07380689 0.11117974 -0.15856269 -0.33037508 -0.06379964
0.008302043 0.08938701 0.28346083 -0.091404736 -0.18321772 -0.06698816 0.14196701 0.23316522
0.29572242 0.000762623 -0.13901013 -0.23082931 0.120948695 0.13669848 -0.062959746 -0.40410975
-0.25986436 -0.3250791 -0.21864125 -0.30227116 -0.33431086 -0.42686763 -0.000109495915 0.16586708
0.22743545 -0.28104332 -0.5218411 0.100190274 0.15260015 0.22662704 -0.11280235 -0.5419107
-0.075882256 0.07886723 0.17071603 -0.036508054 -0.25741836 -0.20696571 0.17787409 0.30484396
-0.08385015 -0.1738406 -0.10301401 0.15786642 -0.057753567 -0.024017353 0.15611774 0.18479669
0.066163555 0.17550445 0.045550454 0.15577187 -0.12353787 -0.15211532 0.14444996 0.08164264
-0.36413568 -0.11911989 -0.10519751 -0.23280518 -0.43914765 -0.29206058 0.07878255 0.13144936
-0.16898483 -0.20517254 0.21445061 0.18597437 0.09225492 0.045573466 -0.015384475 0.059616975
-0.07962793 -0.21795972 -0.22340143 -0.2998185 -0.37839198 -0.2981748 -0.21322487 -0.30176812
0.012425426 -0.0942619 0.047366973 0.07833782 -0.034872103 0.006144621 -0.06796556 0.027567614
0.24160722 -0.06645404 -0.13704668 0.1647434 0.16650045 0.18758582 0.115543805 0.09971723
-0.070506975 -0.20371914 -0.29888085 0.22332615 0.06708803 -0.0022175496 -0.33698973 -0.06061567
0.28767696 -0.11876925 -0.04952615 -0.7109999 -0.056793574 0.15624176 -0.109312706 -0.2012065
-0.1226972 -0.19775891 -0.031869695 -0.20232257 -0.002329162 0.021216584 -0.02728138 0.06367473
0.0029962428 0.2078955 0.040332932 0.18812534 -0.115724884 0.24176763 0.0015600926 0.16448762
0.0019174919 -0.33777142 0.050702758 0.20923209 0.27445635 0.013107624 -0.44263396 -0.31040064
-0.24500526 -0.12475334 -0.39484522 -0.10759332 -0.27491555 -0.37126246 -0.4165046 -0.2259959
0.11051186 0.023314938 0.04555791 -0.09012844 0.03179458 0.038008384 0.0068744556 0.2089492
-0.17364408 -0.254349 0.005366652 0.10242998 0.21909967 -0.008557274 -0.26825336 -0.1264947
0.09588056 0.20419444 0.10161057 -0.09962736 -0.27356184 0.05987695 0.10789438 0.086964495
0.0629415 0.04928633 0.063637875 -0.117721386 -0.15683655 0.033558488 0.071661726 0.073667325
-0.026406115 -0.29968473 -0.017048616 -0.044374872 0.27797008 -0.15232116 -0.26542044 -0.030301144
0.30750507 0.04370425 -0.5501726 -0.10213409 0.078007944 -0.3333258 -0.4518935 -0.19898061
0.1381321 0.09421709

conv1.bias f4 [10]
00000000: e93a bfbd ca8a f4bd 8467 9a3c 1869 a0bc
00000010: 72cd cfbd 36d3 1ebd fb32 08bd baa2 c13c
00000020: 3465 64be 8688 82bb
-0.09337408 -0.119405344 0.018848188 -0.019581363 -0.101466075 -0.038775645 -0.033251744 0.023637164
-0.22304231 -0.00398356

conv2.weight f4 [20, 10, 5, 5]
00000000: 7606 cd3d 2b38 c53d 10d5 d63d e2c5 fabd
00000010: bc74 00be 48c9 a0bd cac9 c63d b51d fd3d
00000020: d207 6b3c be36 f2bd ae45 26bd d5d4 b6bd
00000030: 79b5 ee3c e013 583d c3d6 3a3d 8644 223d
00000040: 1e59 7cbd 517d 40be aa11 cbbc d8d1 153e
00000050: 03f7 7d3d 3739 f2bb 08eb 093d 9b25 b3bd
00000060: 11e9 5abc 60b6 47bd 9f4d 04be 3c3c 88bd
00000070: 437a 2c3b deae 9bbc a01d f73b be26 023d
00000080: 7150 aebd 8db5 64bd 23bc b4bd d296 a43b
00000090: 3c44 7ebc b9ac abbd 87e2 31bd 058a b03c
000000a0: 28f1 82bd 55fc 93bd 0a64 28bc 0740 5e3c
000000b0: f61d 853d f523 51bc ca33 843d 3ed1 d63d
000000c0: b67a f73d 315d 0d3e cde9 bdbb 5ee2 3c3e
000000d0: 42d4 093e 7149 29be eb39 103e e7b1 3f3d
000000e0: ebf5 033e 0ba8 f33d 89a9 4fbd 082b 34be
000000f0: 2c3b 2f3e bca3 e73d 18d9 f23d 7c6d 13bd
00000100: 01bc 9fbd 43fb 833c 428e 23bd 9554 d1bb
00000110: 7aa4 923c 6dd4 61bd bc3e a43c 4b45 15be
00000120: 2503 22be aeea 613c b69b e03c 2a6c 0f3d
00000130: f0d2 66bd 3027 35be 1330 65be 7c06 e0bd
00000140: e813 c7bd 4350 92bd 6277 1cba 48a2 863d
00000150: be31 473e 0756 c6bd 268a 963d 1b54 7e3e
00000160: 4fee 573e 4a20 203e b626 1ebe 8fd8 57bc
00000170: 4ee6 1b3e 0ebb 413e 842e adbb 2e62 16be
00000180: 1330 b3bd cc9f 8c3c 5438 b6bd 7839 b1bd
00000190: bc6c a6bc 1faa b23d 2e30 6bbd 5f61 a73d
000001a0: 104d 84b7 811a 7bbd f133 a53d 8f4c 063d
000001b0: ba9a 58bd 75a4 5bbe 945e fabd e9b7 33bd
000001c0: b5d0 6ebd 84ff 67be e5d0 30be ebe7 093e
000001d0: 6e1d 0c3d 45d8 8cbc b5c2 ccbc af96 e1bd
000001e0: 2ea1 973d e8c9 1a3e 6b4d 8a3d 3d30 143b
000001f0: f0d8 9ebc ea4e a73d 0ab1 f43d f092 813d
00000200: b170 6f3d 86fe cfbd 7b2d 0bbd 6d65 a5bd
00000210: 0e87 96bd 7af7 e03c 68d2 fabd 859a 2bbe
00000220: ca6b b6bd 3131 30bc 2356 77bd 7c6a 3ebd
00000230: 9549 5cbd d3da e6bb 65b9 003d e721 02be
00000240: 27af a6bd 1455 023e 7c8b 233e dec8 0e3e
00000250: 7a64 acbd 3f4b 21be 6882 eebd 357d 84bd
00000260: b906 7b3d 7213 9bbd eb11 efbd d271 b6be
00000270: 2a99 32be 2cb1 6dbe 06ab c8bd 3e92 87bd
00000280: 1523 d33d 5623 573c 2bd0 80bd 8c86 bebb
00000290: 8b46 9cbd 5067 30bc 9c68 2ebe 627a fb3d
000002a0: 66d3 fb3d 5f74 063e d34b 06be ca42 7abe
000002b0: cd0d 643e 49df 383e 4773 f5bc 20fd 53be
000002c0: 0cfe 40be 6647 05ba 6492 533c 2b3f 123e
000002d0: 3bc5 2dbd b61c 823d 2338 153d b61a 6dbd
000002e0: b3c3 4fbe b239 eb3d 35e2 4a3d 7a84 e4bd
000002f0: 5c2f b3bd c028 753d 88ae 7a3c 6892 78bd
00000300: 8e70 21be dd14 2bbe 1fb4 dcbd 5ce6 8cb9
00000310: f58f 53bd 5b64 3ebd 5e1d 69bd 1abb 413c
00000320: 20ac 8cbd 76c6 683c 3fa3 a33b 6dbe 76bd
00000330: de4f 1b3d ec99 023c a33c 143e 0c25 eb3d
00000340: 4bd9 323e 8f94 0c3e 8c4a ccbd fa69 a73d
00000350: 496c 053e 7bc6 5d3d f064 85bb c179 94bd
00000360: f0b4 4ebe 2b0a 8cbd 0f1b d43d 9603 b93c
00000370: d20e 9dbe be2d a5be 465e cfbd 99f4 a53d
00000380: 4be3 043e 098d 1d3a 1697 1f3e 2d4c b0bd
00000390: 32fc 05be b106 9dbd 57a1 683d 892b 96bd
000003a0: f3fb 30be 0827 56be 3e9b 12be f9b7 64bd
000003b0: ef71 913c 8965 c3bc a685 c5bd 8c91 e439
000003c0: 4a1d 923d 8aae b23c 8c01 fa3d eed8 5ebd
000003d0: 148a 253d d25c a4ba 175c 1d3e b327 023e
000003e0: c0cd 023d 0545 f03d 081a 22be 7c8b 88be
000003f0: 0ad9 2bbe 3c9c 27bd 54f2 393b 3bd3 6fbe
0.10010998 0.09629854 0.10489857 -0.122447744 -0.1254453 -0.07850891 0.09706457 0.12359182
0.014345126 -0.118268475 -0.040593795 -0.08927313 0.029139267 0.05275333 0.04561497 0.03961613
-0.061608426 -0.18797804 -0.024788696 0.1463083 0.062003147 -0.0073920744 0.03367141 -0.08747407
-0.013361231 -0.04875791 -0.12920235 -0.06652114 0.002631799 -0.019004282 0.0075413734 0.03177523
-0.08511437 -0.055837203 -0.08824947 0.005022862 -0.015519198 -0.083825536 -0.043428924 0.021550188
-0.06393653 -0.07225863 -0.010277757 0.01356507 0.06499855 -0.0127649205 0.064551905 0.104891285
0.12083952 0.13805081 -0.0057956935 0.18445727 0.13459876 -0.16531922 0.14084594 0.04680052
0.12886779 0.11897286 -0.05069879 -0.1759454 0.17112416 0.11310527 0.118578136 -0.035993084
-0.07799531 0.016111022 -0.03993059 -0.006388257 0.017900694 -0.055134226 0.020049445 -0.14577214
-0.15821512 0.013788862 0.027417999 0.035015263 -0.05635351 -0.1769073 -0.2238162 -0.10938737
-0.09720594 -0.07144215 -0.0005968717 0.065739214 0.19452569 -0.09684377 0.073505685 0.24836771
0.21087001 0.15637317 -0.15444455 -0.01317419 0.15224573 0.18919012 -0.005285086 -0.1468589
-0.08749404 0.01716604 -0.088974625 -0.086535394 -0.02031552 0.08723854 -0.057418995 0.08172869
-1.5771511e-05 -0.061304573 0.08066548 0.032787856 -0.052881934 -0.21449454 -0.122250706 -0.043876562
-0.058304507 -0.22656065 -0.17267187 0.13467376 0.034207754 -0.01719297 -0.024995187 -0.11015069
0.074037895 0.15116084 0.067530476 0.002261176 -0.019390553 0.081693485 0.1194783 0.06326854
0.05845708 -0.10155968 -0.03397892 -0.08075986 -0.073499784 0.027461756 -0.12247163 -0.16758163
-0.08907278 -0.010753916 -0.06038488 -0.04648827 -0.05378111 -0.007045129 0.031426806 -0.12708245
-0.081388764 0.12727767 0.15971178 0.13943812 -0.08417602 -0.1575136 -0.11645967 -0.06469194
0.061285708 -0.07572068 -0.116733395 -0.35633713 -0.1744124 -0.23212117 -0.09798245 -0.0661969
0.10309426 0.013130983 -0.06289705 -0.005814379 -0.076306425 -0.010766819 -0.17032093 0.12279202
0.122961804 0.1313033 -0.13114862 -0.2443954 0.2227089 0.18053927 -0.029962195 -0.20702028
-0.18846911 -0.00050841866 0.01291332 0.14281909 -0.04242442 0.063531324 0.03643049 -0.0578868
-0.20289497 0.11485614 0.049532134 -0.111580804 -0.087492675 0.059853315 0.015300401 -0.0606865
-0.15765592 -0.16707177 -0.10776543 -0.00026874512 -0.05165096 -0.046482425 -0.056912772 0.011824394
-0.06868768 0.014207473 0.0049938257 -0.060240198 0.037917964 0.007971268 0.14476256 0.114816755
0.17465703 0.13728546 -0.09975156 0.0817451 0.13029589 0.054144364 -0.0040708706 -0.07249785
-0.2018621 -0.06837877 0.103567235 0.022584718 -0.3067537 -0.3226146 -0.10125403 0.08103294
0.1297733 0.00060100906 0.15584978 -0.086082794 -0.13084486 -0.07667292 0.05679449 -0.073325224
-0.17283611 -0.20913327 -0.14317033 -0.055839512 0.017754523 -0.023852127 -0.09644632 0.0004359599
0.07134493 0.021811742 0.12207326 -0.0544061 0.040414885 -0.001253987 0.1536716 0.12710457
0.0319345 0.117319144 -0.15830243 -0.26668918 -0.16782013 -0.04092048 0.0028373199 -0.23420422

conv2.bias f4 [20]
00000000: 6657 52bc c433 493d 0ba7 c6bd d233 a4bd
00000010: fbf1 efbd 8726 84bd 2860 ea3b 53c6 1c3d
00000020: 8fed 1fbd 9852 adbd 04f8 c4bd 6d16 f43b
00000030: ac27 db3c d2e9 cdbd 3b3f e13c c977 a63d
00000040: 2f45 81bd 8277 bfbd 28c0 a7bd cb45 8bbd
-0.01283822 0.049121633 -0.0969983 -0.080176964 -0.11716076 -0.06452661 0.007152576 0.038275074
-0.039044913 -0.08463019 -0.09617618 0.0074489624 0.026752315 -0.10054363 0.027495971 0.08128316
-0.06312024 -0.09348966 -0.08190948 -0.06800421

fc1.weight f4 [160, 320]
00000000: 38a4 a7bb 9b08 2fbd 33a0 b4bc ae15 203d
00000010: 31db d13d 7523 73bd 0459 303d aacc efbc
00000020: 3613 a2bd bea4 c1b7 df77 d8bd d4b4 24be
00000030: ed18 313d f6f4 883d bb83 4fbe c8d1 adbe
00000040: d15e ffbd da4e 05be cf7c ca3c 53e0 b63d
00000050: 1107 37be b824 2cbe 79d0 0ebe 6ea9 16be
00000060: 7d8e 7bbe 2d55 23be 4f6e 203e 3cd1 a6bc
00000070: 18c7 1d3e 8b61 d93d d8f5 c7bc 24e8 3cbd
00000080: f47e 613e e034 ef3d 4d65 633d 9cde 2f3c
00000090: c781 143c b0b0 afbd 60b1 a13d 6a95 0d3e
000000a0: 438d 1c3e 4376 893b a89b 38bd 611c a4bd
000000b0: 18bc 85be 5ba5 abbe f8d8 04bd e9dd 973c
000000c0: 600d 82bc f2b3 373c 0550 a6bc e98e 5dbc
000000d0: 015f 643d 8e03 36bd 5acd b6bc 3f3e 19bb
000000e0: f910 9d3a ae20 8d3c 7ddb 8cbc 485c 383d
000000f0: ef8c 94bc 43c9 e73c ccce 413d 876a 423d
00000100: 6e89 bb3c d2b7 02bd d592 16bd b240 dabd
00000110: bf93 bd3d 9503 dabd c032 70bc 31e4 1dbe
00000120: b002 ca3d c66a b8bc 8f17 d3bd 1d1e 5bbe
00000130: 1ec4 42be 6546 90bd c776 54be 7ca8 aabd
00000140: 2c28 643d c7b9 6e3d 7eb8 34be 60e9 43be
00000150: 5250 493d 66ed d13d 5c23 2ebc d628 4cbd
00000160: 9a47 8cbd 3a7c 09be 122d 7bbe 6c40 11be
00000170: 6bf3 e43d eb83 a7bd 0b86 3abe 5814 cabd
00000180: 214a a33d db99 1f3d 914c 93bd 68e3 1fbd
00000190: ea7a 963d 7183 963d d11b c93d 7c99 d2bd
000001a0: 996a 903d 55bb ccbd d663 5bbd b6d0 f3bd
000001b0: edc7 76bc 228c 6d3d 0519 0bbe c9f5 693d
000001c0: 2a4a 9bbe 6ca8 a4be f50e be3c 886b a03d
000001d0: 46c0 e4ba 36ce 223d fb56 b73d ba0a 56bd
000001e0: d1a9 5ebc 4b2a d83c 1b12 8fbd b9d9 0dbe
000001f0: f37b 003d 2ac4 923d 8f90 b73d ffd6 b1bd
00000200: 901e bc3d d7eb 0bbd f048 233c 90c9 1abe
00000210: 8228 a03d a9a9 09be ec1e 56bd d0d4 17be
00000220: d4d8 9f3c 7447 04be 4ca4 3a3d b1a0 a43c
00000230: 6652 6eba 53b7 38be df79 5ebe b7f2 d5bc
00000240: 2812 113e 9a6e 54bd 3c74 893c df48 d83d
00000250: 0a31 a3bd 4968 98bc 03f3 3f3e 6e60 45bc
00000260: 3611 c33d a598 46bd 6575 f13d fff6 1ebc
00000270: 5a55 53be 0942 f6bd 8e25 2fbc c540 90be
00000280: 7787 033e 3c70 04bd afa3 8abd 261e 403d
00000290: 1488 86bd 197c 783c da55 1cbb 1815 5abe
000002a0: 8033 2d3d b30b 843d d20e 913b 4ebf e5bd
000002b0: 0971 1fbe 2068 e93c 723b 6cbe 1008 bcbc
000002c0: 5fd4 f23d 37d7 1a3e 0d09 9d3d f251 0c3d
000002d0: 3618 5f3d bb2d cabd fcb6 03be 97af f1bd
000002e0: 490f c83d c779 f2bd 608a 293d 1b50 043e
000002f0: 6df4 7dbd 678a 8ebe 055a aabe 9bc7 59be
00000300: 007b 00bd 2ce1 13bc 5c72 2fbe 9009 9abe
00000310: 2761 d2bd 61c3 10bc 0631 1cbe a4f1 ce3c
00000320: a163 ab3c 4845 313d 66fd eebd 2b9f 52be
00000330: 8cc5 06be 3b2b 93bd fcab 2bbc e0ce ff3d
00000340: 921c 1b3e 6040 9ebc 23db 0dbe f580 84bd
00000350: 115d f83c 3be9 00bd e67e 44be 5496 23bd
00000360: 1154 e4bc 0b4e 45bd 3be2 bcbd 5685 56be
00000370: 2a2c 863d f1c7 4dbc 5174 13be 52f4 67be
00000380: 64ec 1c3e 89e0 933d d882 2c3e 512a 513c
00000390: 12a1 9e3d e30a 4cbd bd2c 863d a26d d8bd
000003a0: 498a 5abd 9c6e 9abc 8b94 98bd edf6 283e
000003b0: b3e8 f6bd 73ab 9ebe 95d4 a8be 9168 47bd
000003c0: 49c5 9cbe b0c2 a3be f8ca 313d 35d5 2e3e
000003d0: c221 b9bc 6e7f 54bc d06d 8d3d 69d6 cfbd
000003e0: d6be 6dbd 6578 a8bc a5a5 c3bd ac03 c8bd
000003f0: 13c9 793d 6ef1 043d 65bd c1bd 42eb 00be
-0.005116012 -0.042732816 -0.022049045 0.039083175 0.102468856 -0.059359986 0.043053642 -0.029272396
-0.079138204 -2.3084107e-05 -0.105697386 -0.16084605 0.04323666 0.066873476 -0.20265095 -0.33949113
-0.12469257 -0.1301836 0.024717717 0.08929505 -0.1787379 -0.16810882 -0.13946714 -0.1471307
-0.24566074 -0.1595046 0.1566708 -0.020363443 0.1540798 0.10614308 -0.02440922 -0.046119824
0.22021085 0.11680007 0.05551653 0.010734227 0.009064144 -0.08578622 0.0789516 0.13826528
0.15288262 0.004195006 -0.04507032 -0.08013225 -0.26120067 -0.33524594 -0.03243348 0.018538432
-0.015875518 0.011212336 -0.020301828 -0.013522842 0.055754665 -0.044436984 -0.022314716 -0.0023383049
0.0011983208 0.017227497 -0.017194504 0.04500988 -0.018133609 0.028294211 0.047316357 0.047464874
0.02289268 -0.031913586 -0.036761124 -0.10656871 0.09256696 -0.106452145 -0.014660537 -0.1541908
0.09863794 -0.022511851 -0.10307228 -0.21398206 -0.19020125 -0.07044677 -0.20748435 -0.08332917
0.055702373 0.05828264 -0.17648503 -0.19131994 0.049148865 0.10250358 -0.0106285475 -0.04984363
-0.068495944 -0.13426295 -0.24528912 -0.14184731 0.11179241 -0.08179458 -0.18215196 -0.098671615
0.07973123 0.038965087 -0.07192338 -0.03903523 0.07347663 0.07349289 0.09819759 -0.10283181
0.07051582 -0.09996668 -0.053562008 -0.11905043 -0.015062314 0.05799497 -0.13583763 0.057119165
-0.3033002 -0.32159746 0.023200491 0.0783301 -0.0017452321 0.03974744 0.08952137 -0.052256323
-0.013590292 0.026387354 -0.06985875 -0.13852586 0.031368207 0.071663216 0.08963119 -0.086835854
0.09185517 -0.03416046 0.00996612 -0.15115952 0.07820226 -0.13443626 -0.052275583 -0.14827275
0.019512571 -0.12917882 0.045566842 0.020096155 -0.0009091258 -0.18038683 -0.21726178 -0.026116712
0.14167082 -0.05186329 0.016779058 0.10560774 -0.07968338 -0.018604415 0.18745045 -0.012046916
0.09524767 -0.048485417 0.11789969 -0.009702443 -0.20638028 -0.12024314 -0.010690106 -0.28174415
0.12844644 -0.032333598 -0.067695014 0.04690375 -0.065689236 0.015166306 -0.0023854882 -0.21297109
0.042285442 0.06447544 0.0044268155 -0.11218129 -0.15570463 0.028492033 -0.23069552 -0.022953063
0.11856913 0.1512116 0.07667742 0.034257837 0.05446645 -0.09872004 -0.12862772 -0.11801069
0.097685404 -0.118396334 0.04139173 0.12921183 -0.06200068 -0.27839968 -0.33271804 -0.2126755
-0.031367302 -0.009025853 -0.17133468 -0.3008542 -0.102724366 -0.008835644 -0.15253076 0.025261708
0.02092153 0.043278962 -0.11669426 -0.2056853 -0.13161296 -0.0718598 -0.010478016 0.1249063
0.15147617 -0.019317806 -0.13853125 -0.06469909 0.030317815 -0.031472426 -0.19189033 -0.039938286
-0.027872117 -0.04817013 -0.092228375 -0.20949301 0.065513924 -0.012559877 -0.1439984 -0.22651795
0.15324551 0.07220561 0.16846788 0.012766437 0.077455655 -0.04981507 0.06551502 -0.10567786
-0.053354535 -0.01885157 -0.07450207 0.16500445 -0.120561026 -0.3099018 -0.32974687 -0.048683707
-0.30619267 -0.31984472 0.043406457 0.1707352 -0.022599105 -0.012969835 0.06905711 -0.10148317
-0.058043323 -0.020565221 -0.095530786 -0.09766325 0.060982775 0.032456808 -0.09459952 -0.12589744

fc1.bias f4 [160]
00000000: a3b8 87bc bb19 b8bd 3268 e23c 5bbd 5e3c
00000010: ab32 363e 23d5 87bb fe90 acbd a8f9 01bd
00000020: b893 1e3e e6d0 133d ec96 a4bd 62a4 0cbe
00000030: 48be 9c3d 86b6 84bd c8a8 dc3d d136 b0bb
00000040: 3c93 d5bd 1c5b 143e 38e3 4ebc 0a3f 78bd
00000050: 7b27 523d 418e 203e d990 79bd 9342 2e3e
00000060: 1169 763c 3d40 1cbd 4e31 83bb 1293 05bd
00000070: 0c5e e03d 0a6f 09bd 4680 38bb 9716 343d
00000080: 6efa 1ebd 3458 8dbd dc5c afbd c61a debc
00000090: c7fe cebd f0eb 3e3c 2dfb bbbc 6ce3 81bd
000000a0: 0977 0bbe 5efc 26be 59aa 44bd 545c 31bc
000000b0: 3915 c43c acf7 eb3b 8ab7 913c e8fb d2bc
000000c0: 2a0e 403d f4ff 963d ddb5 e43c 3b34 423d
000000d0: 52df d2bd ce05 70bd c39c 6cbd dd8d e2bd
000000e0: 2e12 8e3c d310 153e 0dc5 0e3e 578a 3d3d
000000f0: e1fc febc 9102 11bd 6ee7 25bd 7677 febd
00000100: 9916 373a 859d 16bd 467f afbd 74e1 f3bd
00000110: 2611 37bd 00d9 72b6 12e4 253e e224 b1bd
00000120: 2e57 3a3d b9e0 7e3d ad79 a03d 70f9 203e
00000130: bcbe 09bd 8314 4abd 2787 b4bc 78f0 bcbc
00000140: 1ce6 ebbd e1e9 90bd c3ca 9bbb 8d76 a53d
00000150: dc4f 643d b186 a3bd 60de bfbd 1080 683c
00000160: 64f6 2ebd 0c02 0ebd fa7b 8dbc c04e b3bd
00000170: 19c8 1e3e 6f67 873b 95c3 42bd 49a0 423c
00000180: 44c0 9cbd 469c b7bd 096e 27bb 97f5 033d
00000190: adad 2fbd 580d 31be 0ad4 19be dd22 be3c
000001a0: 3038 ecbc e3a1 3cbc 9b53 6d3d 66d4 0d3e
000001b0: 0aa8 343d f690 73bc e19d c2bd 3e71 44bd
000001c0: 9b3e 12bc 5db5 36bd 1bf3 0abe 287f 533d
000001d0: 58f7 67bd 564e 003d 660a 563b 4ff2 0c3e
000001e0: 21e4 6d3e 310c 3c3d 1689 6cbc 7cc9 e5bc
000001f0: 66ff afbd 24fb 703d 8ad3 703c 831c 2abd
00000200: be60 443c 0173 c1bd 4c58 09be b79d 1f3b
00000210: d523 d43c 1386 233d 8a8d 9abd 696c 04be
00000220: c547 f63d 27cc 55bb baa1 0bbc 411a 27ba
00000230: 9ce7 04bd 963d 29be 293a 93bd 260c 1fbd
00000240: 136c 97bd baaf 563c 9e1c d53c 8d09 9bbd
00000250: 33db dcbd ab89 28be 9761 5bbd a517 b7bd
00000260: 158c c5bd a8d4 88bc 6123 0d3e 8a3c 033c
00000270: b21a bcbd 723a d6bc e4fd 553e fba7 2cbd
-0.016567534 -0.08989283 0.027637575 0.013594951 0.17792766 -0.004145281 -0.084260926 -0.03173223
0.15486038 0.036087893 -0.080365986 -0.13734582 0.07653481 -0.06480126 0.1077438 -0.0053776284
-0.10428473 0.1448788 -0.012627415 -0.060606994 0.051307183 0.15679266 -0.060929153 0.17017584
0.015039698 -0.0381472 -0.0040036803 -0.03261096 0.10955438 -0.03355316 -0.0028152629 0.043966856
-0.038813047 -0.06901589 -0.085626334 -0.027112376 -0.10107189 0.011652932 -0.022946918 -0.063422054
-0.13619627 -0.16307208 -0.04801402 -0.010825235 0.023935901 0.0072011556 0.017787714 -0.025754884
0.046888508 0.07373038 0.02791875 0.047413092 -0.10296501 -0.058599286 -0.057766687 -0.110622145
0.017342653 0.14557199 0.13942356 0.04627451 -0.031126441 -0.03540284 -0.04050391 -0.12425129
0.00069842633 -0.036771316 -0.08569197 -0.11908236 -0.04469409 -3.618712e-06 0.16200283 -0.08649613
0.045493297 0.06222603 0.07835708 0.15720153 -0.033629164 -0.049335968 -0.022037102 -0.023063883
-0.11518499 -0.07075859 -0.0047543957 0.080792524 0.055740222 -0.07984675 -0.093685865 0.014190689
-0.042715445 -0.03466992 -0.01727103 -0.08755255 0.15506019 0.0041322033 -0.047549803 0.011879035
-0.07653859 -0.08965354 -0.0025547764 0.032216635 -0.04289024 -0.17290246 -0.15022293 0.023209983
-0.028835386 -0.011513206 0.05794106 0.13850555 0.044105567 -0.014866104 -0.09502769 -0.04795956
-0.008926059 -0.044606555 -0.135693 0.051634938 -0.05663237 0.031324707 0.0032660007 0.13764308
0.23231556 0.045910064 -0.014436981 -0.028050177 -0.08593635 0.058833256 0.014698872 -0.041531097
0.011985956 -0.094457634 -0.13412589 0.002435548 0.025895992 0.039922785 -0.07546528 -0.1293198
0.12025408 -0.0032622905 -0.008522445 -0.00063744566 -0.032447442 -0.165274 -0.071888275 -0.038829945
-0.073936604 0.01310342 0.026014622 -0.07570181 -0.107839964 -0.16458766 -0.053559866 -0.08940057
-0.09645859 -0.016702965 0.13783027 0.008010039 -0.09184779 -0.026150916 0.20897633 -0.042152386

fc2.weight f4 [16, 160]
00000000: a2f3 3b3e d442 71bd f6a6 833d 5a31 c33d
00000010: cf1b bbbd 4798 053e 82c1 99bd 7c83 59bd
00000020: a96a 1ebe 8956 d03d d67d 8abc 701c 26bd
00000030: 122c 933d 7a80 223e 30f7 43bd f00e f3bc
00000040: a460 e63b d7f6 6ebd 9cd6 2e3e cd81 f9bc
00000050: ba37 79ba f2bc a53d 819b 34bd b276 033d
00000060: 9fd4 403e 117e 3bbe 6a40 2fbc 24bc 1c3e
00000070: a8c5 ec3d 76aa 0dbe a34f 6c3e ff52 4c3e
00000080: 298c 093e 1279 87bc e6a5 42bd 5065 f8bd
00000090: 031e 97bd 8cc2 a13c b45c d5bd f0b7 39bd
000000a0: 4651 d8bd cd33 10be 4ee8 823d ad49 563c
000000b0: 052c b83d 2769 5b3e 627c 1b3e 853c d6bd
000000c0: c913 be3d 9ea0 273e dce0 29bd db73 a73d
000000d0: 775d 38bd cdf2 143d 75f8 873e 76d2 2dbd
000000e0: 45df e6bd 3a13 903d 10d8 24be b46d 1d3d
000000f0: ca93 03be 3ddd bfbd 6664 96bd 0a6c d13b
00000100: 53f6 20be 520e 4dbd c670 3ebe a7e7 c23b
00000110: 6be4 103e 4874 2c3e 9abb aebd e923 a5bd
00000120: 3994 de3c 84f4 8a3d b8c6 9f3d 7c95 96bd
00000130: ed26 043e 2f99 fdbd d536 a7bd d24d 9a3d
00000140: 0099 3cbd 5859 24be 22c5 d43d 1484 08be
00000150: 3b65 913c 4df8 55bc b1f6 2abd d168 07be
00000160: bbbc 363e aaab 7d3e b1fa f0bd bd98 8cbd
00000170: 97fd 46bd 6dc3 c93d 53ff db3d c987 adbd
00000180: 8a73 9ebd 1eba b9bd 3a72 703e 6e0c 7d3d
00000190: 8236 02be a329 48be c5ab 81bd 09bc 113e
000001a0: 9848 01be f8f4 a1bd 1f7c 013e 2779 c2bd
000001b0: 5052 223d 4b35 083e 7914 43bc 64a1 13be
000001c0: e3b9 ce3d a98a 82bd 710e 43bd d92a 273e
000001d0: a07e 7fbd 5d9a 863d 8d05 173e d4b0 5abd
000001e0: 89f7 bdbd 12c3 003e 6c76 423e c327 6e3e
000001f0: 137f 063e 822f 663e 0f33 11bc ec8e 9c3d
00000200: 1a71 193e a02e 0abe 08fa bbbd b56a 5c3e
00000210: 2a8b 183e 729a 703c e450 cabd 1635 a4bd
00000220: 78e0 45bd 4252 673d 2e13 28bd e9b6 ed3c
00000230: 878a bd3c 55b6 2dbd 509a 35be a791 7f3a
00000240: de47 b5bd bc22 18be 1a0f 6a3e 7d1f 30bd
00000250: e90a ebbd f260 28be 2066 08be f42d 87bd
00000260: 154a a8bd 6732 cc3d d8c0 ba3a dc20 ab3d
00000270: 720a 6abd d705 043d 2638 b13b 2fb3 04be
00000280: d167 ff3d 501b dabd 6305 573d 2cbe 453e
00000290: e70c 50be fc8f a63d 6bd5 573e ab1a 82bd
000002a0: 43d7 7ebd db2c 0b3e 8779 2fbd db78 b2bb
000002b0: ecd0 173d 9045 92be a5ea 17be 1594 f73d
000002c0: f8ab 36be 7531 77be 8929 663d 8e1d 7fbd
000002d0: be82 91bd 4eb7 9b3c b7b8 373e 2181 ac3b
000002e0: b9b0 85be 995c 053e bffd 433e a8e7 69bd
000002f0: c01c 7e3c c5a6 8c3d 28f0 8bbe 16c9 d53d
00000300: 3d00 903d fa05 e23d 626f 0abe d3a8 023d
00000310: a53e 9fbc 4926 c43d 6c6b f63d 10f8 01be
00000320: e25d d6bd 54ff 403e f3e2 3bbd 2a27 233e
00000330: 6449 4b3e d560 75be 31d8 17be d954 97bd
00000340: e1cc b1bd 6ede e93d 7354 abbd 99a5 cb3c
00000350: ab3a c7bd 5cae 223e 93ae 9ebe 4253 04be
00000360: 26f5 2a3e 10d2 d7bc f727 01be a44c 603e
00000370: a5f0 643d 56ac 5cbc 1888 06bb 1e3e 0abe
00000380: 74d3 48bd 56fd 1abe c136 d33d 30d7 8fbd
00000390: 48b4 103d 275a 0d3e f741 4dbc 93c4 31bd
000003a0: 2f44 b53d 8229 353e 9f18 7c3d dc14 e0bd
000003b0: 1f12 f23d 3c64 5d3e 55fc 063e 7018 053d
000003c0: 1d15 5fbd 3fc5 153e 712a 093e b85e a3bd
000003d0: 9b4c 0fbe 5e19 973d 7b8f 70bd 6360 fd3d
000003e0: e583 6ebe 3470 7fbe 1896 b43d bde2 d8bd
000003f0: 400f 3bbe afd7 783e fde8 a2bc 292c 2c3e
0.18354657 -0.058901623 0.0642833 0.095308974 -0.091361634 0.1304637 -0.07507612 -0.05310391
-0.15470375 0.10172755 -0.016905706 -0.040554464 0.0718614 0.15869322 -0.04784316 -0.029670209
0.0070305634 -0.058340874 0.17074054 -0.030457402 -0.00095069 0.08092679 -0.044093613 0.03209562
0.18831109 -0.1830981 -0.01069651 0.15306145 0.115611374 -0.13834557 0.23077254 0.19953535
0.13432373 -0.016537223 -0.047521494 -0.12128699 -0.07378771 0.019746087 -0.10418072 -0.045341432
-0.10562377 -0.1408226 0.06391965 0.013079089 0.08992771 0.21426831 0.15184167 -0.10460762
0.092811175 0.16369864 -0.04147421 0.081763946 -0.04501101 0.036364365 0.26556745 -0.04243704
-0.11273054 0.07034917 -0.16098046 0.0384347 -0.12849346 -0.0936837 -0.07343368 0.006391053
-0.15718965 -0.050062485 -0.18597707 0.0059480253 0.14149635 0.16841233 -0.08531876 -0.0806349
0.027170287 0.06784919 0.078015745 -0.07352731 0.12905474 -0.12382733 -0.08164755 0.07534374
-0.04604435 -0.16049707 0.103891626 -0.13331634 0.017748466 -0.013059688 -0.04173917 -0.13223578
0.17845432 0.24772516 -0.117665656 -0.0686507 -0.048581686 0.09851728 0.107420586 -0.084731646
-0.07736881 -0.09068702 0.23481074 0.061779432 -0.12716106 -0.19547133 -0.063315906 0.14231886
-0.12625349 -0.07908052 0.12645005 -0.09495764 0.03962928 0.1330158 -0.0119067365 -0.14417034
0.10094049 -0.063741036 -0.047621194 0.16324939 -0.06237662 0.06572411 0.14748211 -0.053391293
-0.09275729 0.12574413 0.18990487 0.23257355 0.13134412 0.2247906 -0.008862271 0.07644448
0.14984551 -0.13494349 -0.09178549 0.2152508 0.14896837 0.01468526 -0.0987871 -0.08017938
-0.048309773 0.05647493 -0.041033916 0.029017882 0.023137344 -0.042410214 -0.17734647 0.0009749182
-0.08851598 -0.14857 0.22857323 -0.04299878 -0.1147669 -0.16443232 -0.13320208 -0.06600562
-0.08217255 0.09970551 0.0014248146 0.08355877 -0.057138868 0.03223213 0.0054083047 -0.12958978
0.12470973 -0.10649741 0.05249537 0.19310826 -0.20317422 0.081329316 0.21077506 -0.06352743
-0.06221701 0.1359133 -0.042840507 -0.005446536 0.037064478 -0.28568697 -0.14835604 0.12088791
-0.17839038 -0.2413996 0.056191955 -0.062284045 -0.07105015 0.019008305 0.17941557 0.005264417
-0.2611139 0.13023604 0.19139765 -0.05710569 0.015509784 0.06867746 -0.27331662 0.10438745
0.070312954 0.11036296 -0.13519052 0.031899285 -0.01943905 0.09577615 0.12032208 -0.12692285
-0.104671255 0.188474 -0.045870733 0.15932909 0.19852215 -0.2396272 -0.14828564 -0.0738923
-0.08681656 0.11419378 -0.08365717 0.024859237 -0.09727987 0.15886825 -0.30992565 -0.12922385
0.16695079 -0.026345283 -0.12612902 0.21904236 0.05589356 -0.013468822 -0.0020527896 -0.13500258
-0.049029782 -0.15135702 0.10313178 -0.07023466 0.03532818 0.13803922 -0.012527934 -0.04340036
0.088508956 0.17691615 0.061546918 -0.109414786 0.118198626 0.21620268 0.13182195 0.03249401
-0.054463495 0.14626025 0.13395096 -0.079770505 -0.13994066 0.07377885 -0.058730584 0.123719
-0.23292501 -0.24945146 0.088176906 -0.10590122 -0.18267536 0.24301027 -0.019886488 0.16813721

fc2.bias f4 [16]
00000000: 1c5e d4be e473 2f3e 4a60 fc3b 9a12 9b3d
00000010: 71a6 2a3d dce0 e63d 9ec4 1dbd 6c83 35be
00000020: 2795 733e 5477 d7bd 3a4f ee3b 0955 36be
00000030: c2c4 b3bd 62bb 0b3e 321d 4e3d e51c c53c
-0.4147805 0.17134053 0.0077019082 0.07571907 0.041662637 0.11273357 -0.038517587 -0.17725915
0.23787366 -0.10520807 0.007272628 -0.17805876 -0.08777763 0.136457 0.05032081 0.02406163

fc3.weight f4 [10, 16]
00000000: dcda f53f 0cfc bb3f 944c 2fc0 d84e d4bf
00000010: bda1 ddbf 6552 dd3f 1e55 1a40 a42c c7be
00000020: ef6d ae3f 1b96 00c0 d43e eabf 15fa 0040
00000030: f8e3 0240 f3c4 e63f 07e8 1ec0 6b42 0ac0
00000040: c46e dbbf 986d 0bc0 ea62 f83f c7a3 fa3f
00000050: 8a04 e0bf 8f9e 00c0 2938 a13f 538c b1bf
00000060: 0a5d 0140 fc95 0dc0 3cad 2840 39f1 d03f
00000070: bfbd e13f 97a3 9dbf 18c6 03c0 40a0 0740
00000080: 7191 d1bf 3377 0440 e2f4 f33f c035 11c0
00000090: 283e b7bf 729e f3bf e20d ae3f 5663 f33f
000000a0: 3397 e03f 9800 1440 649c ebbf 62f5 d53f
000000b0: cec3 ae3f 1d52 f9bf 2fac 0640 5a26 70bf
000000c0: c71c 93bf c853 0dc0 ff6c d13f 61eb dcbf
000000d0: a709 a13f 7881 893f 4147 0d40 55f4 24c0
000000e0: 4280 03c0 56b1 d3bf dc24 02c0 8857 93bf
000000f0: 5944 fcbf d1ff 0cc0 c50e f63f 2b87 0fc0
00000100: 6d8b df3f 451c 0640 91be d53e 597d 6c3f
00000110: b6fc 1fc0 02d5 f03f ab31 b5bf 0c8d e4bf
00000120: e6f6 a0bf 1822 963f 499c e93f bd7f 0040
00000130: 1b06 0cc0 531f e03f 013a fc3f a581 f93f
00000140: 5333 d0bf 3ca5 cabf 68fc e6bf 47ca d8bf
00000150: 8012 0b40 8165 b93f f205 f0bf e0a3 2e40
00000160: 889b e3bf cd7a edbf 3474 7dbf 2d04 d3bf
00000170: 83de f23e 9f12 fe3f 9a4b 9f3f 499e 0640
00000180: f6bc f33f f973 13c0 52fe 0ac0 59cd 0540
00000190: b091 97bf f680 22c0 de35 fcbf eff1 c23f
000001a0: e371 fabf 7096 e83f fa10 c43f 66e5 a03f
000001b0: ac55 0740 c79d a53f 22e4 b03f 861e 37c0
000001c0: 2dc2 f03f 3f87 f63f 981f 0a40 6f47 fc3f
000001d0: beed 963f b701 05c0 abfd cfbf 2f2c 0140
000001e0: a744 dd3f 074e 12c0 43db 52bf 9da8 bcbf
000001f0: 12e5 19c0 f5d4 9fbf 328f a4bf 4555 11c0
00000200: ba61 dabf 07b5 0740 2cb1 843f 8277 d63f
00000210: 3d62 0840 c231 ed3f 1941 aa3f e729 35bf
00000220: c55a 0ac0 31ed 0440 2d88 1740 7a36 e5bf
00000230: 5442 1c40 1f4d 51bf e96a 02c0 81a5 eebf
00000240: 35c5 c63f 6ccb e83e 5653 13c0 c306 d83f
00000250: 7c41 c83f 7efb b73f 9940 a6bf 333e 03c0
00000260: 9d15 0540 dc66 0c40 ea2b 14c0 dccb d7bf
00000270: 2e6b acbf f3fb ecbf d068 c8bf 43a2 0340
1.9207416 1.4686294 -2.739049 -1.6586561 -1.7314984 1.729077 2.4114451 -0.38901246
1.3627299 -2.0091617 -1.8300424 2.0152638 2.045164 1.8028854 -2.4829118 -2.1603038
-1.7143178 -2.178564 1.9405186 1.9581231 -1.7501385 -2.0096776 1.2595264 -1.3870949
2.0213037 -2.2122793 2.6355734 1.6323615 1.7636031 -1.2315549 -2.0589657 2.119156
-1.637251 2.0697753 1.9059107 -2.2689056 -1.4315844 -1.9032729 1.3597987 1.901469
1.7546142 2.3125362 -1.8407102 1.671551 1.3653505 -1.9478184 2.1042593 -0.9380852
-1.1493157 -2.2082386 1.6361388 -1.7259332 1.2581071 1.0742636 2.207474 -2.5774128
-2.0547032 -1.6538494 -2.0334997 -1.1511087 -1.9708358 -2.2031138 1.9223257 -2.242625
1.7464424 2.0954754 0.41746953 0.92378765 -2.4997993 1.8815005 -1.4155782 -1.7855544
-1.2575347 1.1729155 1.825082 2.0077965 -2.1878726 1.7509559 1.9705201 1.9492689
-1.6265663 -1.5831676 -1.8045778 -1.693673 2.1730042 1.4484102 -1.8751814 2.7287521
-1.7781839 -1.8553101 -0.99005437 -1.6485649 0.47435388 1.9849433 1.2444947 2.103411
1.9042041 -2.3039534 -2.1717725 2.0906584 -1.1841335 -2.5391212 -1.9703939 1.5230082
-1.9566005 1.817091 1.5317681 1.2570007 2.114604 1.2938775 1.3819621 -2.861238
1.8809258 1.9260024 2.1581783 1.97093 1.1791303 -2.0782297 -1.6249288 2.0183218
1.7286576 -2.2860124 -0.82365817 -1.4738957 -2.4046063 -1.2486864 -1.28562 -2.2708294
-1.7061074 2.120424 1.0366569 1.6755221 2.130996 1.853081 1.3301116 -0.7076706
-2.1617901 2.076977 2.3676865 -1.790725 2.4415483 -0.817583 -2.0377753 -1.8644258
1.5528933 0.454677 -2.3019614 1.6877064 1.5644984 1.4373624 -1.2988464 -2.0506713
2.0794442 2.193778 -2.3151803 -1.6859088 -1.3470209 -1.8514389 -1.5656986 2.0567787

fc3.bias f4 [10]
00000000: 9e13 00be 3e46 0fbd 011b 0e3c 0d33 9abc
00000010: 98da f2bc 7203 0fbe 8fd0 4abd 73ab 633d
00000020: b732 cdbb 952b b23d
-0.12507483 -0.034979098 0.00867343 -0.018823171 -0.02964525 -0.13966158 -0.049515303 0.05558343
-0.006262149 0.08699719
