model/MNIST_16_net.pt (torch, 241150 bytes, 10 tensors)

conv1.weight f4 [10, 1, 5, 5]
000000 67 99 58 bf 5a 60 d4 be a0 a7 16 bf 29 ba c8 be
       -0.84609073 -0.4147976 -0.58849525 -0.3920453
000010 ef d5 f5 be 5c 41 d1 be 53 ff 7f be e0 29 8b 3d
       -0.4801478 -0.40870178 -0.24999742 0.067950964
000020 29 ee c6 3d 77 7e 70 3e 8b e1 5d 3d 8c b7 39 3e
       0.09713394 0.23485743 0.054170173 0.18136424
000030 bf a0 dc bc 67 4c f8 3d de ba c6 3c 74 d7 4f 3e
       -0.026932118 0.121239476 0.024259027 0.20297033
000040 f2 cb d4 3d 97 e0 9c 3c dc 97 1a 3e 40 6d 2c 3e
       0.10390462 0.019150062 0.15096992 0.1683855
000050 1c df 1b be 67 bb bf bd 08 5d 21 bd 45 e3 7f be
       -0.15221828 -0.09361916 -0.039395362 -0.2498904
000060 cf 8a 92 be 3b 3c 06 3e 66 7d c3 3d b2 c1 07 3e
       -0.28621528 0.13108914 0.09545402 0.13257483
000070 39 a6 df 3d 53 26 48 3d 31 5f cb 3d 0f 3c 91 bc
       0.10920376 0.048864674 0.09930266 -0.017728833
000080 6b f9 37 be ba ab a3 bc 28 be 64 3e db 29 81 bd
       -0.17966239 -0.019979347 0.22338164 -0.063068114
000090 12 b2 3c 3e 0f 0b 5c 3e d8 1b 80 3e 35 39 3a 3e
       0.18427303 0.21488594 0.25021243 0.18185885
0000a0 61 27 c0 be d1 6a 3b 3e 1e c1 d0 3d a1 ac 44 bd
       -0.37530044 0.18302466 0.10193084 -0.048016194
0000b0 82 9d 18 be f6 6a 12 bf de 03 44 bf d7 43 0f bf
       -0.14903834 -0.5719446 -0.765684 -0.5596289
0000c0 9c 47 b9 be a1 ec b0 be dc 4d 71 3d 5a af fb 3d
       -0.36187446 -0.34555534 0.058912143 0.12289305
0000d0 69 2c 4a 3d ab 25 96 bc fd 02 c7 bc 17 a1 e7 3c
       0.04935876 -0.018328508 -0.024293417 0.028275056
0000e0 22 3b ce 3d b0 b7 aa 3d 04 3c 55 be d5 82 56 bd
       0.100698724 0.08335817 -0.20823675 -0.052370865
0000f0 e6 e5 7a 3e c3 75 f1 3d 2b ea ab be 1b 38 05 bf
       0.24501762 0.117900394 -0.33577093 -0.52038735
000100 ab 8e d1 bd f0 c7 16 3d a3 1c 1e bf ba 7b b1 be
       -0.1023229 0.03681177 -0.61762446 -0.34664708
000110 4e 9d dc 3d 01 4f a5 3e e7 b6 f5 be 7c 3b 0d be
       0.10772191 0.32286838 -0.47991106 -0.13792223
000120 0e ac 1b 3e b6 65 12 3e c9 07 84 3e 96 e3 01 3e
       0.15202352 0.14296612 0.2578719 0.12684473
000130 1c a0 86 be f5 47 1f be a0 6a 5e 3e 62 3d 55 bd
       -0.2629403 -0.15554793 0.21720362 -0.052060492
000140 7e d8 c4 3d b3 11 0c 3e cc f1 51 be 6e 66 c6 3d
       0.09611605 0.13678627 -0.20502394 0.09687506
000150 ba eb 32 be 41 57 87 3d 42 30 05 3e 82 7c e7 3b
       -0.17472735 0.06608439 0.1300669 0.007064403
000160 1d 26 b0 be 02 9a ca bd 23 ef 9b bd d6 ce 79 3e
       -0.34404078 -0.09892656 -0.07613971 0.24395308
000170 bf 00 92 3e 39 16 46 be e0 2b 8c 3d 7d fb 02 be
       0.28516194 -0.19344415 0.06844306 -0.12791248
000180 9a 7a 72 be 79 53 30 3e 71 e5 66 3e 0c c4 05 3e
       -0.23679581 0.17219342 0.22548462 0.13063067
000190 59 c2 31 bc dd c0 2d 3e 39 c6 b2 3d b0 33 17 3e
       -0.010849559 0.16968103 0.08729214 0.14765811
0001a0 69 2d 27 3e 71 3a 90 3d b7 86 de bd 37 ef 35 3e
       0.16325916 0.07042397 -0.108655386 0.17767034
0001b0 d2 a3 95 bc 68 13 a2 be ab 5e 75 be f9 b6 d5 3d
       -0.018266592 -0.3165543 -0.23961894 0.1043529
0001c0 12 c6 43 3e 1b d4 66 3c 9b c7 8d be 2e 9f e9 be
       0.19118527 0.014088656 -0.2769135 -0.45629257
0001d0 5e 43 25 be 21 44 e0 3d 36 34 aa 3d f9 16 21 3e
       -0.1613898 0.109504946 0.0831074 0.1573142
0001e0 fc 2f 96 be e7 6c 63 be 2a 5f 8f bc 22 98 63 3b
       -0.29333484 -0.22209512 -0.017501432 0.003472813
0001f0 df 83 24 3e 0d cc 99 3d ef 85 43 3e fb e4 0a be
       0.1606593 0.07509623 0.1909406 -0.13563912
000200 a2 9b f1 bd 78 cd 72 be 08 d9 d8 bc 86 df 5b 3e
       -0.11797263 -0.23711193 -0.026470676 0.21471986
000210 6e db 01 bc c6 8d c3 bc 40 6b 3d be aa 49 74 bd
       -0.007925851 -0.023871314 -0.18497944 -0.059640564
000220 18 f8 91 3e e8 50 58 3c 10 fa e4 bd 11 6f 04 be
       0.28509593 0.013202883 -0.11180508 -0.12932993
000230 7b 49 a3 bd a7 1b 85 3e e0 5b 7d bc 13 1b 8e be
       -0.07973 0.2599766 -0.015463799 -0.2775503
000240 d3 44 6e bd 53 66 2b 3e 26 bc 1d 3e 45 0e 94 bc
       -0.058171105 0.16738252 0.15403804 -0.01807321
000250 d3 dc cc ba b8 ea 77 3e f2 ae 00 3e 69 75 2f 3e
       -0.0015629776 0.24210632 0.12566736 0.17134632
000260 cb 88 ed 3c dd 9f 8d 3e 09 16 dc 3d e4 71 37 3e
       0.028995892 0.27661029 0.1074639 0.1791454
000270 3a 63 47 be d4 e1 72 be d1 94 cd 3d 8f 86 65 bd
       -0.19471446 -0.23718959 0.1003815 -0.05603653
000280 2b 14 29 3d 83 d0 d1 bd 89 b4 3b be 7d c1 85 be
       0.041279 -0.102448486 -0.18330587 -0.26124182
000290 36 f9 d5 bd 47 c7 76 3d 26 c1 b1 be d7 c6 f2 bd
       -0.10447924 0.06024864 -0.34717673 -0.11854332
0002a0 07 b1 8f bb f4 85 db 3d 9c c1 93 3e 85 b5 62 3e
       -0.004385117 0.10718909 0.2885865 0.22139557
0002b0 04 e2 5d 3e 76 b3 80 3e 41 f9 3a 3c ce 0d 35 3e
       0.2166825 0.25136918 0.011411966 0.17681047
0002c0 83 8b 15 be 00 c2 8b be e9 24 c6 bd 6c 19 dc be
       -0.14604001 -0.27296448 -0.09675009 -0.42988145
0002d0 6f dc 6c 3e a6 73 55 3e 77 02 22 3d 52 f2 76 be
       0.23130964 0.20844898 0.039553132 -0.24115875
0002e0 d4 8b 81 be e6 fb 91 3e 17 b1 06 3e 73 2c 79 be
       -0.25301993 0.28512496 0.13153492 -0.24333362
0002f0 79 6e 26 bf 89 a1 f3 bd 8e 9d 8c 3e 70 71 d9 bd
       -0.6501232 -0.11896045 0.27463955 -0.106173396
000300 48 de 62 be d9 24 ca be 7d e2 10 be c1 ed 2c be
       -0.22155106 -0.39481238 -0.14148898 -0.16887571
000310 45 45 8f be b3 d6 2d be d1 4f ae bd 24 95 92 bd
       -0.27982536 -0.16976433 -0.085113175 -0.071573526
000320 f8 f3 34 bf 3a f6 8f be 95 07 f9 be 16 ea f9 be
       -0.70684767 -0.28117543 -0.48638597 -0.48811406
000330 fa ad 39 3e 19 c5 fe 3c b9 3d b1 bd fe b9 82 3c
       0.18132773 0.031099843 -0.08654351 0.015957829
000340 96 42 f0 be 30 06 44 bf c4 db 9b bb 0b a0 17 3d
       -0.469258 -0.7657194 -0.0047564227 0.037017863
000350 72 67 31 3e 8f 02 8c 3e 5f ac c1 be 8e 38 7c 3e
       0.17324618 0.27345702 -0.3782682 0.24630949
000360 fe 78 32 3e ce 8d 78 3d b2 34 76 bc 20 f8 20 3d
       0.17428967 0.06068211 -0.015027212 0.03929913
000370 c8 e1 3f be 49 44 14 3d 85 9c cf 3d 7a 9b 54 3e
       -0.18738472 0.036197934 0.101372756 0.20762435
000380 8b d2 73 3e a9 4c b3 3d 4f c0 4b 3d dc 38 88 3e
       0.23810785 0.08754856 0.049743947 0.2660588
000390 5f 00 74 3d 31 34 17 3d 34 01 fc 3d e6 73 c5 3d
       0.059570666 0.036915008 0.12304917 0.096412465
0003a0 81 78 60 bd 91 ba 3b be da 17 44 be 6e a1 20 3e
       -0.05480242 -0.18332888 -0.19149724 0.1568658
0003b0 83 b2 52 3d 04 6a 80 3d 88 40 2c bd c5 5e 06 be
       0.051439773 0.06270221 -0.04205373 -0.13122089
0003c0 c2 42 75 bc 70 e8 2e 3b 04 a5 7b 3d 6b de 64 3e
       -0.01496953 0.0026688837 0.061436668 0.2235047
0003d0 41 32 47 be 35 b7 a8 bc 5f 22 dc bd 82 14 ac bd
       -0.19452764 -0.020595172 -0.10748743 -0.08402349
0003e0 76 82 18 bc f8 af d0 3b
       -0.009308448 0.0063686334

conv1.bias f4 [10]
000000 d6 bd bd 3b 1d 78 f8 ba 54 2f 74 bd af 0b 1e be
       0.0057904525 -0.0018956695 -0.059615448 -0.15434144
000010 7f e9 4a be 21 b4 a6 be ba ea cf be fe 07 c9 bb
       -0.19815634 -0.32559302 -0.4060877 -0.006134986
000020 2e 04 2f be 00 6d dc bd
       -0.17091438 -0.107629776

conv2.weight f4 [20, 10, 5, 5]
000000 a2 72 92 ba a3 ea a9 bd 46 c7 13 3e 54 4e 0a 3e
       -0.0011173079 -0.082967065 0.14431486 0.13506442
000010 49 71 fa 3d 66 d9 61 be f1 c1 9d bb 47 f3 15 3e
       0.12228639 -0.22055587 -0.0048143794 0.14643584
000020 91 f1 f4 3d ee e5 47 3e 34 81 6a bc 1b 9f 90 bd
       0.11960138 0.19521305 -0.014313031 -0.07061597
000030 3d a1 5a 3e ae 09 eb 3d c2 4d 83 3d 96 5a b6 3d
       0.2135057 0.11476456 0.064113155 0.08903997
000040 70 9d 90 bd 5b 92 8c bd f2 cf a4 be 2e 55 b8 be
       -0.07061279 -0.068638526 -0.321899 -0.36002487
000050 cf 27 63 3d f2 ae 1d 3e 90 b1 82 3d c1 4e 87 3d
       0.055457886 0.15398768 0.063815236 0.06606818
000060 a8 72 d2 be 43 25 fb 3c 76 43 72 3b 4d 2e b7 3c
       -0.411031 0.030657416 0.003696648 0.022360945
000070 dc e4 7d 3d d8 da 58 be 47 e4 46 3e fd 1b 22 3e
       0.061985835 -0.21177232 0.19423018 0.15830989
000080 fd 09 97 3d 7e 25 2f 3e 96 76 ad bd d2 78 10 3e
       0.07374952 0.17104146 -0.08469884 0.1410859
000090 ca 57 f0 3d 1b 81 9e 3d da 90 d1 3b 0a 80 2f bd
       0.117354944 0.07739469 0.0063954415 -0.042846717
0000a0 c6 5c 91 3e 97 30 61 3e 03 7b 13 3d 77 43 18 bd
       0.28391093 0.21991192 0.036005985 -0.037173714
0000b0 94 93 28 3e c9 eb d2 bd d1 f5 40 be a2 9c b6 be
       0.16462547 -0.10298879 -0.18843772 -0.35666376
0000c0 a6 14 a4 be 22 2e f6 3c 64 38 d5 3c e3 40 20 bd
       -0.32047004 0.030051295 0.026027866 -0.03912438
0000d0 0d c0 49 bd b7 6f 4c be a6 50 04 3d 6c 71 9b 3b
       -0.04925542 -0.19964491 0.032303475 0.0047437456
0000e0 28 c5 76 3d 77 33 94 bd fd 4f 75 be b9 0e 9d be
       0.060246617 -0.07236379 -0.23956294 -0.30675295
0000f0 85 6b 14 be a1 28 60 be 0c 29 f0 bd ef bd cb bd
       -0.1449414 -0.21890499 -0.11726579 -0.09948336
000100 06 99 a0 be e0 e2 94 3c 44 59 ef 3d b6 24 e0 3d
       -0.31366748 0.018174589 0.11686948 0.10944502
000110 b2 82 1a 3d ed 71 db 3d a8 97 08 3e 53 a5 8b 3e
       0.037722297 0.10715089 0.13339102 0.2727457
000120 d0 8e 73 3e 10 b5 8a 3e 8f 61 af bd e8 b1 9c bd
       0.23784947 0.27091265 -0.0856353 -0.076511204
000130 a8 83 6e bc ab 12 c5 3d 21 f8 d1 3d 28 27 10 3e
       -0.0145577565 0.09622701 0.10252405 0.14077437
000140 d7 d9 38 3b 91 06 70 be 71 c6 20 bd bb a6 a0 bd
       0.0028206015 -0.23440005 -0.03925175 -0.07844301
000150 7d 0d d5 3d 6a e9 0e 3e 07 7b 4f bd 80 ba 61 be
       0.10402963 0.13956228 -0.050654437 -0.220438
000160 94 28 de bd a6 30 24 3e 17 c5 2f 3d b6 3c ba bd
       -0.108475834 0.16034183 0.04291257 -0.09093611
000170 3d ad 1f 3d 94 64 96 be 30 c7 95 be 7a c3 17 3e
       0.038983572 -0.2937361 -0.2925353 0.14820662
000180 54 1c 88 3c b7 1e af bd 9a fa 92 bd ea e4 bc bd
       0.01661507 -0.0855078 -0.07176705 -0.092233494
000190 d9 cd b1 bd 74 2f 20 3e 6a ef 5c 3c 7c 7d 24 be
       -0.086818404 0.15643102 0.013484815 -0.16063493
0001a0 7d da ad bd e2 24 51 3d 46 94 50 3e 6b 7e 72 3e
       -0.08488939 0.051060565 0.20369062 0.23681037
0001b0 c6 24 50 3e b0 23 72 3d ca 76 50 bd ee 7b a0 be
       0.20326528 0.059116066 -0.050894536 -0.3134455
0001c0 8a 1f dd bd ee e4 3e 3e 56 89 04 3e cf 24 e6 3d
       -0.10797031 0.18642017 0.12943015 0.112374894
0001d0 4a c0 71 3d 9c 0f e1 bd b0 fc 4c be 20 b9 42 3d
       0.05902127 -0.109893054 -0.20018268 0.04753983
0001e0 fb b6 03 3e 8d 2e 56 3d f6 0d 6d bd df 42 43 3d
       0.1286277 0.052290488 -0.057874642 0.047671195
0001f0 05 5d 0c be d2 75 1d be 46 84 c1 bc 3d bb b2 bb
       -0.13707359 -0.15376976 -0.023622643 -0.0054544494
000200 8f f3 23 be ee f3 19 3d 40 38 3b 3d bc 4d 80 be
       -0.16010879 0.037586145 0.04570794 -0.25059307
000210 a8 26 0f be c4 d0 05 bd e3 2c 8c 3c a7 9c 28 be
       -0.1397959 -0.032669798 0.017111247 -0.16466008
000220 a2 f5 2d be a0 84 8b bd 08 40 8e bd fa 45 8b 3c
       -0.16988233 -0.068124056 -0.06945807 0.01700114
000230 0c f8 d2 bd 94 f8 e5 bd 3d d3 6f bd 12 82 04 bf
       -0.103012174 -0.11229053 -0.058551062 -0.5176097
000240 c7 08 38 be 43 b4 ad bd 60 c4 a4 3a 65 7e f1 be
       -0.17972098 -0.08481648 0.0012570731 -0.47166744
000250 5f 1b af be 6b b5 76 3c e3 6c 8e bd bc fd 98 3d
       -0.3420057 0.015057902 -0.06954362 0.07470271
000260 87 a7 fe bd 4e 9a 05 bc 81 fe ac 3d 81 a5 0e bd
       -0.12434297 -0.008154465 0.0844698 -0.034825806
000270 26 9d 4b be af 54 2e be 9e b1 e0 3c 8f 82 3b 3e
       -0.19884166 -0.17024492 0.027428444 0.18311523
000280 7f 9f ae bc eb 76 fa 3c 47 38 24 be e6 82 16 3e
       -0.021316288 0.030574283 -0.16037093 0.14698371
000290 db db 92 3c cc c7 00 be 15 66 10 be 78 b0 5a 3d
       0.0179271 -0.12576216 -0.14101441 0.05339095
0002a0 e8 00 34 3e 31 45 56 bc c7 28 dc bd cd 89 51 bd
       0.1757847 -0.01307802 -0.10749965 -0.051156808
0002b0 7a 15 27 3d 7b 93 23 3e 88 f7 1b bd 8c f9 57 be
       0.040791966 0.15974228 -0.03807786 -0.21091288
0002c0 44 ac 61 bd 93 45 de bd 01 e5 cf bd b2 8c ce bc
       -0.055095926 -0.10853114 -0.10151101 -0.025213573
0002d0 6b 01 76 be a7 a6 a9 bc 67 0a 4e be de ba 77 be
       -0.24023978 -0.020709349 -0.20121156 -0.24192378
0002e0 bb 5d 52 bd 71 5a 34 3e 98 3a 27 3e c7 35 ab bd
       -0.05135892 0.17612626 0.16330945 -0.083598666
0002f0 24 25 dd bd a7 64 48 be c2 f7 e2 bd 35 25 ce ba
       -0.107981 -0.19569646 -0.11082412 -0.0015727641
000300 dc f3 81 3d ba 50 a2 bd 7e 40 e1 bd 4c af 94 be
       0.063453406 -0.079255536 -0.10998629 -0.2903999
000310 28 12 04 bd 88 89 0d be 41 fb 4a be 9f 43 b3 bd
       -0.032243878 -0.13821995 -0.19822408 -0.08753132
000320 a7 85 c1 3d f3 7e 63 3d 24 7c 70 bb 90 e9 40 3b
       0.0944932 0.05554099 -0.0036695087 0.002943609
000330 f8 cd 99 3d e4 4b 70 3d e3 f6 69 3d eb c3 43 be
       0.075099885 0.058666125 0.057120215 -0.19117706
000340 e8 a6 89 bd b4 7d 30 3d f7 27 bf 3d 0d 57 a4 bd
       -0.06721288 0.04308863 0.093337946 -0.08024416
000350 fc 99 81 be a3 7a a7 3d 84 39 e4 3d b5 08 b0 3e
       -0.25312793 0.08177688 0.11143783 0.34381643
000360 b7 a3 38 be 8b da 1f be 89 02 5b be 38 84 6f be
       -0.18031202 -0.15610711 -0.21387686 -0.23390281
000370 fb 89 3a 3e 58 c2 3c 3e e7 3a 85 3d 92 b2 b7 bd
       0.18216698 0.18433511 0.06505375 -0.089696065
000380 58 79 a1 be b4 5c 8a bd 11 4c 73 bd 36 b6 d2 bc
       -0.3153789 -0.06755963 -0.059398714 -0.02572165
000390 e1 19 a0 3d 85 af 07 3d e6 e9 ed 3c bd f5 1e 3d
       0.07817436 0.033126373 0.029042196 0.038808573
0003a0 b7 ca 84 bc f5 fb aa 3d 04 d4 32 bb 7c 44 21 3d
       -0.016209943 0.08348838 -0.0027287016 0.039371952
0003b0 a9 7f 8f 3c 7d c4 0a 3e bf 70 dd 3b 6e c9 20 bd
       0.017516928 0.13551517 0.006757825 -0.0392546
0003c0 8d 72 84 bc fb 6c b5 3c ff 4b b8 bd a6 f4 9e be
       -0.016167903 0.022146692 -0.0899887 -0.31046027
0003d0 31 cc 5d bc c8 c4 23 3d 15 c1 9d bd c5 44 ca be
       -0.013537453 0.039982587 -0.07702843 -0.39505592
0003e0 3f 8e d6 bd cf c8 16 3e c5 e5 99 3b 22 cc 04 bd
       -0.1047635 0.1472504 0.00469658 -0.03242124
0003f0 c1 8a 25 3e 56 91 38 3e 42 2d f1 3c ea 21 42 3d
       0.16166212 0.18024191 0.029440526 0.047395624

conv2.bias f4 [20]
000000 47 ca a5 3c 52 45 b0 bd 30 86 e4 bd 0d 74 b6 3a
       0.020238055 -0.08606972 -0.11158407 0.0013920084
000010 9b 68 b8 bd 48 b0 5b bd 48 5c 07 be 01 50 8b bc
       -0.09004327 -0.05363491 -0.13218796 -0.017005922
000020 e4 2d 90 bd a4 b0 06 be 1b 29 c8 3d 37 25 ad 3d
       -0.07040003 -0.1315332 0.09773465 0.08454364
000030 36 9e 2d be ac 61 1f be d3 87 41 3e 57 c9 f4 bc
       -0.16954884 -0.15564603 0.18899469 -0.029881163
000040 d7 ba da bc 33 7a 1e bd 22 de d1 bc 50 f0 00 3d
       -0.02670042 -0.038690757 -0.025618616 0.03147918

fc1.weight f4 [160, 320]
000000 84 79 11 3e f7 13 ec 3d 5a 43 1d 3d cb 08 e4 bd
       0.14206511 0.115272455 0.03839431 -0.111344896
000010 0e 3e fe bc ed 3b fd 3b 70 5d 48 3d f8 b6 27 be
       -0.03103545 0.007728091 0.048917234 -0.16378391
000020 11 74 26 be d7 b1 65 3d b0 2d 4e 3e 7b 93 a1 3c
       -0.16255213 0.056077804 0.20134616 0.019723644
000030 70 3b 92 be c5 01 a1 3c 2b df f1 bc bf f9 33 be
       -0.28560972 0.019654164 -0.02952536 -0.1757574
000040 dc c6 12 3e 63 49 9b 3c 2a e2 5c bd 17 bb ad bc
       0.14333671 0.018955892 -0.053926624 -0.021207375
000050 20 50 64 be 07 98 aa 3c 88 3f ed 3c 05 e7 85 3d
       -0.2229619 0.020824445 0.028960958 0.06538204
000060 a3 9a 63 be d2 32 04 bd 89 b2 25 be 9f 6d 3e bd
       -0.22226958 -0.03227503 -0.16181387 -0.04649126
000070 20 b6 e8 bd 34 31 04 be 09 ee 02 be 8b d9 89 bc
       -0.113628626 -0.12909395 -0.12786116 -0.016827365
000080 b1 bb b5 be a8 ce ae bd ed 5e 06 3e e3 f0 e0 bc
       -0.3549476 -0.0853551 0.13122149 -0.027458614
000090 67 63 c2 be f7 c6 c9 bd 3c 2b 09 3d 0f 23 a2 3d
       -0.37966463 -0.09852403 0.033488497 0.07916843
0000a0 e7 27 86 be 28 6d e9 bd 46 09 63 3e 63 c0 72 3d
       -0.26202318 -0.11397773 0.22171506 0.059265506
0000b0 bb 22 e5 bc b6 3a 6f be 04 70 8a be fb 47 37 be
       -0.027970662 -0.2336224 -0.27038586 -0.17898552
0000c0 53 05 95 3c fc b7 2c be 3e 5f 28 be 03 7a 8a 3d
       0.018191015 -0.1686706 -0.16442582 0.06761553
0000d0 1b 9f 18 be 28 ae 81 3c 61 40 c9 bd 35 7d 28 be
       -0.14904444 0.015830114 -0.098267324 -0.16454013
0000e0 60 2d 93 3b f2 07 c4 3e bf 6a c2 3d f1 68 7e 3d
       0.004491493 0.38287312 0.094930165 0.0621118
0000f0 5d 5d 30 be 04 c2 24 be 7c d7 37 be c0 b0 c4 bc
       -0.17223115 -0.16089636 -0.17953295 -0.024010062
000100 9e 89 52 3e 30 5c 00 3d d0 25 a3 bd f9 35 32 be
       0.2056031 0.031337917 -0.079661965 -0.17403401
000110 8c e0 ff bd 82 61 67 be f4 48 f7 39 f9 66 28 be
       -0.12494001 -0.2259579 0.00047165866 -0.16445531
000120 ef 60 65 bd e6 87 d9 bd 50 18 bb bb e6 df 78 be
       -0.056000646 -0.10621624 -0.0057096854 -0.2430416
000130 ba 53 04 3e 09 de aa bc a7 af 15 be f3 13 90 be
       0.12922564 -0.020857828 -0.14617787 -0.2814022
000140 69 e2 f2 bc 35 18 28 bd 7e 24 01 bd 88 b8 6a bb
       -0.029648976 -0.04103871 -0.031528942 -0.0035815556
000150 00 29 5b 3d 7e b8 57 3d 6b 2d 49 3d f2 21 2b bd
       0.053505898 0.05266618 0.04911558 -0.04178042
000160 ef 4d 6c 3d 24 31 39 3c bb 36 49 bc af c1 e5 bc
       0.05769151 0.01130322 -0.012281115 -0.028046457
000170 68 e1 0f 3a 01 cf c7 bc 6e 34 5e 3d dc 66 56 3c
       0.0005488605 -0.0243907 0.05424922 0.013086047
000180 d3 c6 de bd 62 a1 f9 3c b6 b4 a5 bd 48 fd b1 3d
       -0.108777665 0.030472461 -0.080911085 0.08690888
000190 c3 82 7b 3d ed 78 c2 bd 6d 04 0c be e5 02 25 be
       0.061404 -0.09495721 -0.13673563 -0.16114385
0001a0 d9 56 da 3d d3 4a 0d be 3e b0 93 be ff 4e fd 3c
       0.10661096 -0.13798074 -0.288454 0.030921457
0001b0 70 04 dc 3d b0 56 dc 3d fd 5b 3c 3d 46 d1 ef be
       0.10743034 0.10758722 0.045986164 -0.4683935
0001c0 9a 28 4c bd 48 6a 79 3d c9 bb c6 3d 51 7e 38 bd
       -0.04984341 0.060892373 0.09703786 -0.04504234
0001d0 c3 ec 3f 3d a4 83 73 3d 83 ce b4 3d 24 d1 b4 bd
       0.046856653 0.059451714 0.088284515 -0.08828953
0001e0 8f 7f 14 be c6 f4 87 3d 36 43 95 3d e3 a0 ea 3c
       -0.14501785 0.06638484 0.0728821 0.02864117
0001f0 ad 0e 51 bc 63 5f 9d bd 17 d1 ba 3d 48 e0 9a 3d
       -0.012759847 -0.07684209 0.09121912 0.075623095
000200 66 1e 8c be d4 39 e9 bc 89 7a ba 3d f4 31 84 bc
       -0.27366942 -0.028469957 0.09105403 -0.0161371
000210 fb 53 5e be 10 55 e4 bc 50 b8 e6 3d e1 65 62 bd
       -0.21711724 -0.027872592 0.112656236 -0.05527294
000220 c9 ce 8a 3c 91 c3 cf 3d e1 02 6a bd 10 40 59 be
       0.016944306 0.10144723 -0.05713165 -0.21215844
000230 6f 4a 6f bc 6e ae 35 be 3c 16 33 3c 60 59 63 3d
       -0.014605149 -0.17742321 0.010930594 0.055505157
000240 57 46 19 3d 71 49 8f bd ad 67 fc bd d1 ba 22 be
       0.037420597 -0.0699643 -0.12324462 -0.15891577
000250 a2 5d 16 be 17 6f 3b be 26 93 a0 be ac 48 a5 bd
       -0.14684156 -0.18304096 -0.31362265 -0.08070502
000260 6b 99 81 3e 04 2a 8a 3e 78 06 0e bd 46 0d 1d 3e
       0.2531236 0.2698518 -0.034674138 0.15337095
000270 68 9a 28 be 4e 04 39 bd df 81 66 be aa b2 be bd
       -0.16465151 -0.04517012 -0.2251048 -0.09311421
000280 6d 2f de 3d 82 2b d4 bc 13 3c a6 3d d5 32 67 bd
       0.108488895 -0.025899652 0.08116927 -0.05644496
000290 96 cf 90 3c 6c ee 38 bd b8 d6 5a 3d ad c9 14 3d
       0.01767711 -0.04514925 0.053427428 0.036325146
0002a0 6e a8 38 3c 5c 4a 95 bd ef b8 82 3d e9 b2 85 3c
       0.0112706255 -0.072895736 0.063829295 0.016320663
0002b0 89 3c 24 3d 59 1a ba bd 02 9f f5 3d fe 3e 08 be
       0.040096793 -0.09087057 0.11993219 -0.1330528
0002c0 37 66 79 be f2 4a 8e bd 8f 6d 25 3d 56 77 c8 3d
       -0.24355398 -0.069478884 0.040387686 0.097883865
0002d0 5d da 2c be 3e b6 b2 be 19 9a 4d bd 04 03 8c 3b
       -0.16880174 -0.34904665 -0.050195787 0.0042728204
0002e0 f9 93 2b be c5 f4 4c be cf 34 06 3e a9 2b 7b bd
       -0.16755666 -0.20015247 0.13106082 -0.061320934
0002f0 4e 01 39 bd cc af 67 be 1a fc bc bd 55 e1 0c 3e
       -0.04516726 -0.22625655 -0.09227772 0.13757832
000300 f8 63 f6 3c 6b 90 da 3c b8 84 38 be 29 2a bc be
       0.030076966 0.026680192 -0.18019378 -0.36750916
000310 ea d5 32 3e 7b a3 13 3d fd dc 6c be 24 6a 8a bc
       0.17464414 0.03604458 -0.23131175 -0.016896315
000320 4e 05 13 3d 1e f1 a7 3d 59 db b6 bd b3 ee 3b 3d
       0.03589373 0.08200286 -0.08928556 0.04588194
000330 af ee a5 3c 8a 8b 4e 3e df 09 5e be 32 ea 46 be
       0.020255415 0.20170417 -0.21683453 -0.19425276
000340 c3 58 1c be d5 ad ee bd 03 32 c7 be e0 ed ba bd
       -0.15268235 -0.116542496 -0.38905343 -0.09127402
000350 44 c3 31 be 33 8e 2f 3d 40 2f ae be 83 23 b0 bd
       -0.17359644 0.04286022 -0.34020424 -0.08600523
000360 e1 a8 4a 3e fe f3 c7 3e e1 ba 3e bd fe 87 73 bd
       0.19790985 0.3905334 -0.04656494 -0.059455864
000370 3c 4f 83 be 88 ce 50 bd 60 ff f2 bd b6 55 fd 3c
       -0.2564639 -0.050978214 -0.11865115 0.03092466
000380 7b d1 02 bf 34 08 60 be 89 fd ce 3d d2 0b c0 3d
       -0.5110089 -0.21878129 0.10106952 0.093772545
000390 0c 0a 4b be 79 84 4e 3c 7c dd 1d bd f3 58 fb 3c
       -0.19828051 0.012604826 -0.038541302 0.030682063
0003a0 fd c4 a1 3c b0 52 03 bc 07 93 bf bd e4 90 d4 3c
       0.019747252 -0.00801532 -0.09354215 0.025947995
0003b0 ea 91 13 bf ca 3e 88 be 0a fc 35 3d b2 4e 2b 3e
       -0.5764452 -0.26610404 0.044429816 0.16729239
0003c0 9b 19 20 be 62 7f d0 3c 74 df e1 bc 77 1f 59 bd
       -0.15634768 0.025451366 -0.027572371 -0.053008523
0003d0 ba a0 ec bd cb 18 b2 3d 6e 71 bc 3d e8 d9 49 3c
       -0.11554094 0.08696135 0.092013225 0.012320019
0003e0 57 98 0c be f3 32 28 be 26 49 96 be 64 3d 85 3d
       -0.13729988 -0.16425686 -0.29352683 0.0650585
0003f0 0f 1e 8b 3d 1b 27 00 3e 93 64 ab bc 01 cc 16 3e
       0.067928426 0.12514918 -0.020921981 0.14726259

fc1.bias f4 [160]
000000 c1 9b 62 be 20 4c 12 3d 3b 5a e7 bc 0d 5e b8 3d
       -0.22129728 0.03571713 -0.028241267 0.09002314
000010 82 18 3f bd d5 b9 18 bd 74 72 a1 bd f5 39 55 3e
       -0.04665423 -0.0372866 -0.07883158 0.2082289
000020 12 9e f1 bc c9 54 07 be 5c 92 60 3e 4d f3 3c 3e
       -0.02949432 -0.13215937 0.21930832 0.18452187
000030 e5 d6 52 3e 72 20 17 3e 03 63 bd bb e1 97 7e bd
       0.20589788 0.1475847 -0.0057796254 -0.06215656
000040 b8 e2 b7 bd 8a 1b 4e be 7e aa 7a bd 62 2a 77 bd
       -0.0897879 -0.20127693 -0.06119775 -0.060343154
000050 84 f7 17 3e e3 19 61 3e e9 be 4c 3e 5a 83 de 3d
       0.14840513 0.21982531 0.19994701 0.10864897
000060 99 18 83 3e ca 76 5e bd c4 29 a6 3e 5e 15 aa bd
       0.25604704 -0.054312505 0.3245374 -0.08304857
000070 eb 27 c7 3c bb 76 16 3d 18 e8 28 bc 3c 9e 81 bc
       0.024311027 0.036734324 -0.010309242 -0.015822522
000080 80 44 90 3e 09 da 72 3e 1c 25 56 be f4 8d 36 3d
       0.2817726 0.23715986 -0.20912594 0.04456897
000090 ca da db 3d 34 35 ca bd 0b 57 e8 bd 8a ec bf bc
       0.1073509 -0.09873429 -0.11344727 -0.02342822
0000a0 ac 54 43 3e 55 c3 87 3d 62 dd f0 bc 42 2e 29 be
       0.19075269 0.066290535 -0.029402439 -0.16521552
0000b0 e6 7a cf bd e2 82 0d 3d f5 1d 4b 3e fe be 58 bd
       -0.10130863 0.034548648 0.19835646 -0.05291652
0000c0 1b 26 76 3d 4a 8d db bd 04 5e a4 bc ff f6 b6 3d
       0.060094934 -0.10720308 -0.020064361 0.089338295
0000d0 2f a3 93 3c ca 1e 14 be 3f ea 35 bd ed f6 18 3e
       0.018022148 -0.1446487 -0.044412848 0.14937945
0000e0 5a 0a 04 bd 77 7a 92 3e e0 df 20 3d 39 61 a8 bd
       -0.032236435 0.28609058 0.039276004 -0.08221669
0000f0 3c c9 13 be 88 dc f3 3d 06 07 3a be 96 ab bc bd
       -0.14432234 0.119072974 -0.18166742 -0.09212415
000100 35 7b cb bd 36 5c 02 be ad fd fb bc 50 92 b4 bc
       -0.09935609 -0.12730488 -0.03076061 -0.022042423
000110 41 41 77 3b 82 a1 d9 bd e7 a7 82 3e 71 d1 d8 bd
       0.0037728103 -0.10626508 0.25518724 -0.10586823
000120 28 fc 8d 3b e7 5a 2a 3d fc 3c 66 3c c3 c9 8c bd
       0.004333038 0.041590597 0.014052626 -0.068744205
000130 67 92 e0 3d a0 a6 1a 3e a1 29 e9 bc 26 43 ae bd
       0.10965424 0.15102625 -0.028462233 -0.08508901
000140 db 1c 49 3d 0d ff 34 bd a8 df f7 3c f2 2c ea bd
       0.049099784 -0.044188548 0.030258015 -0.11434354
000150 21 29 52 bd 3b f9 02 bd da 6c 83 3d ea 33 dc 3d
       -0.051308755 -0.031975966 0.06417246 0.10752089
000160 35 67 6e 3c 08 f8 4f bd 3f ff 76 3d e8 3d 00 3e
       0.014550974 -0.05077365 0.060302015 0.12523615
000170 e8 e0 b5 bd 07 c5 87 bc b6 ed 1c 3e d0 aa 89 bd
       -0.08880788 -0.016573442 0.15325055 -0.06722033
000180 84 cf 90 3e ec 0c b7 3b cd 53 18 be 43 93 45 bd
       0.28283322 0.005586257 -0.14875717 -0.048236143
000190 dd 76 80 bd 5d be fb bd 10 46 6f 3c d7 f6 b4 bb
       -0.06272671 -0.12292168 0.014604107 -0.0055225897
0001a0 cf 9a 7b 3e c1 59 06 bd 1b 9b a1 bb 4a 2d a1 bd
       0.24570774 -0.03280044 -0.00493182 -0.07869966
0001b0 b3 07 33 3e 35 c7 6c 3d 05 f8 80 3d 77 b0 4f 3d
       0.17483406 0.057807166 0.06297306 0.0507054
0001c0 d3 5b 37 bd 3a 68 4d 3e ca f2 5b 3d 8a d3 40 3d
       -0.044765305 0.2005929 0.05369834 0.04707674
0001d0 15 82 82 bd 00 89 01 bd b7 77 15 3e 56 48 0e 3d
       -0.063724674 -0.031624794 0.14596449 0.034736954
0001e0 2a 5f af bc c6 56 b4 bc f9 a7 84 bd 19 41 00 3e
       -0.021407682 -0.022014033 -0.06477351 0.12524833
0001f0 e3 d0 e2 3c f7 2b 9c 3d 24 a3 4f bc 13 a9 85 3c
       0.027687496 0.07625573 -0.012673173 0.016315972
000200 48 61 f6 3d 44 7c 95 bd de 06 73 bd 70 25 ec bc
       0.12030274 -0.072990924 -0.05933272 -0.028826445
000210 7f f2 c5 3d ff 46 8c 3d 0c f3 b2 3d 47 45 35 3e
       0.09665393 0.06849479 0.08737764 0.17702208
000220 b1 ca a2 3a 86 22 a2 bb e6 0c e3 3d fd 5d 11 3a
       0.0012420026 -0.004947963 0.110864446 0.00055453164
000230 d9 83 5a 3d e7 74 44 bd bd 10 ea 3d 78 0d b8 bd
       0.053348396 -0.04796305 0.11428974 -0.08986944
000240 ce e9 04 3e 36 59 84 3d 31 3d cd 3d 2c db 2b 3d
       0.12979814 0.06462328 0.10021437 0.041957065
000250 03 68 d2 bd f7 82 fc 3b 7b a4 9d bd 0f 02 8d 3c
       -0.10273745 0.007706042 -0.07697388 0.017212896
000260 6d 20 5d bd dc 93 16 3e 79 76 21 3e 61 cc ed bd
       -0.053986 0.14704841 0.1576785 -0.11611248
000270 30 d3 d7 bc e8 d7 8e 3d 46 03 a9 3d 8b 6a 07 3d
       -0.02634582 0.069747746 0.082525775 0.03306059

fc2.weight f4 [16, 160]
000000 d9 2a 31 bd 5f e0 1f 3e 5c 2e 3f bd c1 96 be 3d
       -0.043253753 0.15612935 -0.04667507 0.09306098
000010 e9 83 88 3c f0 4e 1e 3e 25 aa 23 3e 54 43 82 3e
       0.016664462 0.154598 0.15982874 0.25441992
000020 26 70 6e 3d 04 0f 39 3e f6 0d 54 be 7b cb 59 be
       0.05821242 0.18072134 -0.2070845 -0.21269028
000030 86 ff b4 3d 53 56 80 be c4 fe 31 bd 8f c8 65 bb
       0.088378 -0.2506586 -0.043455854 -0.003506217
000040 72 a6 ee 3d f5 65 33 3e c4 00 d0 bd 16 ec 9c 3b
       0.11652841 0.17519362 -0.10156396 0.004788886
000050 c0 e8 e1 3d a6 87 39 be ae 17 5a 3e a8 de 68 3d
       0.11030722 -0.18118152 0.21298096 0.056852967
000060 c1 05 2a be 9e 1a 51 3d 3e e7 09 be a9 1e b0 3e
       -0.16603757 0.051050775 -0.13467118 0.34398392
000070 d3 7e 95 be 78 41 cd bd b2 18 ca 3d 4e d1 75 3e
       -0.29198322 -0.10022253 0.098679915 0.24005625
000080 93 59 ab be 02 81 30 be 6f 5e 18 bd 14 c6 06 3e
       -0.33466777 -0.17236713 -0.037199434 0.13161498
000090 20 c0 fa 3d fa ee bc 3d 60 59 23 3e 6b b8 f5 3c
       0.12243676 0.09225269 0.15952063 0.029995164
0000a0 b8 00 c1 bd 82 03 61 be 7e 7a 27 3e 1e 82 40 3e
       -0.09423965 -0.21973994 0.16355321 0.18799636
0000b0 7f 3d 5f 3d 39 a3 46 3e 92 0e c1 3d 37 64 95 3d
       0.054502007 0.19398202 0.09426607 0.07294505
0000c0 e3 a6 bf bd c7 0d 90 3e d6 67 8f 3d b0 70 88 be
       -0.09358003 0.2813551 0.07002227 -0.26648474
0000d0 dc 29 de be 47 88 fa 3c e0 0e 42 3e 90 44 09 3e
       -0.4339131 0.03058256 0.18950987 0.13405061
0000e0 b1 54 b9 3d cc 25 95 be 70 b4 43 3e f7 3b e0 3d
       0.09049357 -0.291304 0.191118 0.109489374
0000f0 73 a7 dc 3c 32 8d f5 3d ad 5d b5 3d ba cd dc 3d
       0.026935315 0.119898215 0.08855758 0.10781427
000100 c7 52 d4 3b 2f ea da 3d d4 d2 db 3c 9a 71 fb 3d
       0.0064795944 0.10689198 0.02683393 0.12277527
000110 cb 7e f4 3d b2 0d 2c bc d2 eb 6a be 69 91 1d 3d
       0.11938246 -0.010501312 -0.22941521 0.038468752
000120 0b ea 0d bc 14 55 2b 3e 77 2c 47 3e b6 f3 55 bd
       -0.008661757 0.16731673 0.19450556 -0.052234374
000130 b4 dd 76 3e d9 e8 74 bd d9 dc 32 3b 7d bc b7 3d
       0.2410801 -0.059792373 0.002729228 0.08971498
000140 3e 2c b6 3d f4 49 99 be 5b 63 31 be 4a 05 81 ba
       0.08895157 -0.29939234 -0.17323057 -0.0009843495
000150 85 55 4a 3e 65 76 63 bd 44 d3 64 3e ab 99 16 be
       0.19759186 -0.05553283 0.22346216 -0.14707057
000160 b4 c8 99 bd e6 74 79 3d e4 78 95 3d 41 ef 04 3d
       -0.07508984 0.0609025 0.07298449 0.032454733
000170 2e 3b 8a 3e 39 06 73 3d 7e e4 8f be 6b c3 bd 3d
       0.26998276 0.059332106 -0.28104013 0.09265789
000180 78 ef 07 be 1e 65 82 3e 1d ce 11 3d ec 08 19 bc
       -0.13274944 0.2546777 0.035596956 -0.009340506
000190 15 8b 1b 3e 12 43 13 3e b1 bf 53 3e 6c 97 2e 3e
       0.15189774 0.14381054 0.20678593 0.1704995
0001a0 20 ea 2c be a8 47 fc 3c 69 3a a6 3e 04 00 5f bd
       -0.16886187 0.030795887 0.32466438 -0.054443374
0001b0 4f 0f 4c 3e b7 d5 86 3d 0b ac ad 3d 72 c0 26 be
       0.19927715 0.065837316 0.0848008 -0.1628435
0001c0 1f 2d f1 bd 34 8a a2 bd bf 1e 15 be bd c9 61 bd
       -0.11776184 -0.079365164 -0.1456251 -0.055124033
0001d0 a1 43 6f 3c f3 e4 bd bd 21 9c e1 bd 1e c3 4b be
       0.014603526 -0.09272184 -0.11016107 -0.1989865
0001e0 1e cf 8b be 63 92 5e 3d 7e ee 93 3d 82 76 ce bd
       -0.27306455 0.054338824 0.07223223 -0.10081197
0001f0 b2 a4 44 bd b0 45 52 bd 48 e0 43 3e 3e 6c 70 3e
       -0.04800863 -0.05133599 0.19128525 0.23478791
000200 1f f4 53 3e 13 1a 32 bc c4 14 ca 3c e6 82 fb bd
       0.20698594 -0.010870474 0.024668105 -0.12280826
000210 81 9b b7 bd b1 ad 17 be 34 5d 85 be 89 19 19 be
       -0.08965207 -0.14812352 -0.2604767 -0.14951147
000220 5b 59 29 3e 27 44 11 be 04 d1 ce 3c 89 b0 2f 3e
       0.16537993 -0.14186154 0.02524615 0.17157187
000230 ed 4e f9 3c e6 e0 b7 bd dd a7 f9 3d 0e d0 77 3c
       0.030433143 -0.08978443 0.121902205 0.015125288
000240 f6 99 89 be 72 8a bc 3c 43 58 b0 bd 11 ca 0e be
       -0.26875275 0.023015235 -0.086105846 -0.1394427
000250 9b e1 d6 3d c6 31 48 3e a1 57 b2 3e ee 19 95 be
       0.104922496 0.19550237 0.3483248 -0.29121345
000260 1b ab 11 3e ea e2 54 3e cf de 38 3e 94 cd 7a 3d
       0.14225428 0.20789686 0.18053745 0.06123121
000270 8c 37 6f 3d 64 b9 ba bc 7d a0 98 be fc c5 6d be
       0.058402583 -0.02279348 -0.29809943 -0.23220056
000280 5b e5 dd bd bc 24 0d 3e 42 4a 7d bd 47 58 db bd
       -0.10834762 0.13783544 -0.061838396 -0.10710197
000290 08 2e aa bd 72 e4 bf bd b7 69 eb 3b 7f 9a 06 be
       -0.08309561 -0.09369744 0.007184233 -0.13144873
0002a0 fc 01 23 be df 99 9b be ac 6d 18 3e cb 5a b1 3d
       -0.15918726 -0.30390832 0.14885587 0.086598955
0002b0 3d 4c a1 3d 41 bf 0e 3a 4a d6 fe bd 67 fa 41 be
       0.078758694 0.0005445369 -0.12443216 -0.18943177
0002c0 0d f6 83 be e1 d1 60 3c d1 5c 60 be d5 33 fd bd
       -0.2577366 0.013721914 -0.21910407 -0.12363402
0002d0 93 5c 3b be 49 7e 78 3e 6d 45 79 3d 80 a7 16 be
       -0.18297033 0.24266924 0.060857225 -0.14712334
0002e0 29 7a c6 3d 7b 25 90 3d db 81 87 3d 9b c3 b6 3d
       0.09691269 0.07038399 0.06616565 0.089240275
0002f0 e6 ef 83 bd 74 68 22 3e f8 ea 58 be 1b 56 21 3e
       -0.06442241 0.15860158 -0.21183383 0.15755503
000300 be cc 51 bc 47 4b dd 3c 00 f9 3e be 0c 5d 91 bd
       -0.012805162 0.027013434 -0.18649673 -0.070978254
000310 bc 31 2f be cd f7 b0 3d 4c 94 12 be 9a 75 bb bd
       -0.17108816 0.08641014 -0.14314383 -0.0915329
000320 f7 e3 57 3d 73 01 e6 bd 46 22 e2 3d 9c e1 cf 3d
       0.05270764 -0.11230745 0.110416934 0.101504534
000330 60 ac fc bd 4e 41 1b 3d 67 59 e6 bd 71 7b 09 be
       -0.123375654 0.037904076 -0.11247521 -0.13425995
000340 6d 88 81 be f4 0a 9a 3e f2 cc b6 3e 6c 40 95 3d
       -0.25299397 0.30086482 0.35703236 0.07287678
000350 e1 8e 6d bd a8 e1 27 3c 7b f8 28 3e 48 92 8b be
       -0.057997588 0.010246672 0.16501038 -0.2726004
000360 6a 51 20 3e e5 4a 45 3e 3e 4c 7e 3e 70 47 34 3e
       0.15656057 0.19266851 0.24833772 0.17605376
000370 fd a9 ea bd 19 f7 4b 3e fd d2 5c 3b dc 49 c3 3e
       -0.11458204 0.19918479 0.0033695095 0.38142288
000380 a5 a7 42 be 12 0b 30 3e 33 c3 40 be 5e 47 b8 3c
       -0.19009264 0.17191723 -0.18824463 0.022494968
000390 41 7e 30 bd 02 37 c2 bd a9 24 95 bc 43 fe e8 bd
       -0.043089155 -0.09483148 -0.018205957 -0.113766216
0003a0 b8 fb e5 3b 8c bd b7 bd e4 6e e8 bc 43 a1 c3 bd
       0.0070185326 -0.089717 -0.02837319 -0.095522426
0003b0 31 d2 ff 3d 64 bf 0d 3d d6 b7 37 3e a0 c8 a3 bd
       0.12491263 0.034606352 0.17941222 -0.079972506
0003c0 a8 28 6b be 63 af 73 3e 22 83 a2 3e 76 f9 6e be
       -0.22964728 0.23797373 0.3174067 -0.2333735
0003d0 b2 e9 80 3e 89 ae 61 be e9 89 4c 3e f5 5f 37 be
       0.25178295 -0.22039236 0.19974484 -0.17907698
0003e0 f4 c7 1a be cb 3b 85 3d b9 c9 db 3c 7b cd 84 be
       -0.15115339 0.06505545 0.026829587 -0.2593802
0003f0 43 2e 2c 3e 6e a5 2a be 01 36 6c 3d 16 64 86 bc
       0.16814522 -0.16664669 0.05766869 -0.016405147

fc2.bias f4 [16]
000000 02 1e bc bd 41 50 91 be 97 a2 9e 3e 4f eb 90 3e
       -0.09185411 -0.2838154 0.3098342 0.28304526
000010 68 b7 69 3e 07 0e 2c bf 5a 6a a4 bc 5c 01 3c 3d
       0.2282387 -0.67208904 -0.020070244 0.045899734
000020 3f 62 4c be 58 e8 96 3e b3 62 94 be 40 77 1d 3f
       -0.19959353 0.2947414 -0.28981552 0.61510086
000030 8f cd 53 3e af 67 0c be f9 78 48 bd 83 1a 28 3f
       0.20683883 -0.13711427 -0.048943494 0.65665454

fc3.weight f4 [10, 16]
000000 83 e5 c2 3f f7 e4 1a c0 94 27 27 c0 ed 3d 1f 40
       1.5226291 -2.420225 -2.6117907 2.4881546
000010 63 8f 2a 40 f4 f5 11 40 e0 fd 10 40 69 bd ef bf
       2.6650016 2.2806368 2.2654953 -1.8729678
000020 3f 0f c7 3f 1c 84 23 c0 79 32 05 c0 c9 0e 9c 3f
       1.5551528 -2.5549383 -2.0812056 1.2192012
000030 41 42 11 c0 e1 8d 10 c0 4d b3 e1 be f3 23 cc bf
       -2.2696688 -2.2586596 -0.44082108 -1.5948471
000040 67 e4 28 c0 18 a2 04 40 8f e6 b1 3f f8 ca 13 40
       -2.6389406 2.0723934 1.3898486 2.3092632
000050 6f c3 19 40 e8 d9 ed bf 70 30 01 c0 31 6f 22 40
       2.4025533 -1.8582125 -2.0185814 2.5380366
000060 62 b8 ae bf 4a 14 d8 3f 68 4f 2a c0 ba 0f 1e c0
       -1.3650019 1.6881192 -2.6610966 -2.4697099
000070 d7 f3 53 3f b1 22 0b c0 ac 7b c6 bf d0 06 0b c0
       0.82793945 -2.1739924 -1.5506492 -2.1722908
000080 70 2b 03 40 d7 a2 7e 3f 7a de ca 3f 28 00 f6 bf
       2.0495262 0.99467224 1.5849144 -1.9218798
000090 d0 16 09 40 6f b1 13 40 1e c9 d3 bf 27 85 b3 3f
       2.1420174 2.3077047 -1.6545751 1.402501
0000a0 8c 26 05 c0 8a 2c 27 c0 5b 30 0c 40 ad a9 fe 3e
       -2.0804777 -2.6120934 2.1904514 0.49738827
0000b0 ae 2d ee 3f e5 02 07 c0 50 eb 03 c0 50 0f 02 40
       1.860769 -2.1095517 -2.0612373 2.0321846
0000c0 c0 e8 5d 3f 89 55 f4 bf 8a 38 97 3f 27 a1 eb bf
       0.86683273 -1.9088603 1.1814129 -1.8408555
0000d0 f7 02 b3 bf 52 67 0a 40 89 a6 19 40 7c c0 d6 3f
       -1.398528 2.1625562 2.4007895 1.6777492
0000e0 cd 88 f9 3f 37 9b c6 3f 27 35 19 c0 61 9a 2c c0
       1.9494873 1.5516118 -2.3938692 -2.6969225
0000f0 39 fb 01 40 eb 7f 1c 40 b6 1a 1a c0 86 ec 0b 40
       2.0309584 2.4453075 -2.4078803 2.1863112
000100 9a c0 18 c0 0c e6 0d 40 85 3d c5 bf c9 0a 0e c0
       -2.3867555 2.217166 -1.5409399 -2.2194083
000110 2b a9 d9 3f 10 b9 0c c0 7a d4 02 40 07 c4 08 40
       1.7004751 -2.1987953 2.0442185 2.1369646
000120 c9 29 11 40 69 8f c0 bf d6 05 e1 3f 42 fb dc 3f
       2.2681754 -1.5043765 1.7579906 1.7264178
000130 0e 92 db bf 4d 13 dc 3f c1 77 0d 40 3e dc 87 3f
       -1.7153947 1.719339 2.2104342 1.0614088
000140 b9 b1 ac 3f 8c 7e c4 bf f7 5f 0b 40 58 d0 9f bf
       1.3491737 -1.5351119 2.1777322 -1.2485456
000150 23 3e 2e c0 f6 5c ba 3f ff 73 19 bd be 6a a0 bc
       -2.7225425 1.455962 -0.037464138 -0.019582149
000160 32 e2 ff 3f 99 36 0a 40 68 ca 23 bf ae 5b 16 40
       1.9990904 2.1595824 -0.6398072 2.3493457
000170 56 90 18 40 20 63 0d c0 ae a2 35 40 ef 17 30 c0
       2.3838096 -2.209175 2.8380542 -2.7514608
000180 c5 21 10 40 08 c9 0b 40 0d c0 de 3f c7 c7 0e c0
       2.2520611 2.184145 1.7402359 -2.2309434
000190 9f 7d e2 3f e6 ee d4 3f b4 75 2c c0 0e cb 25 c0
       1.7694587 1.6635406 -2.694684 -2.5905185
0001a0 43 63 ec 3f d9 e6 c1 be 7f c8 e9 bf 84 67 fd bf
       1.8467792 -0.37871435 -1.8264312 -1.9797215
0001b0 bd 9f 26 c0 e5 a2 2d 40 a3 69 00 40 9d dc 0f c0
       -2.6034997 2.7130673 2.0064476 -2.2478402
0001c0 45 f8 09 c0 06 2a dd bf bf f7 ab bf a0 8c ff 3f
       -2.1557782 -1.727845 -1.3434981 1.996479
0001d0 fd bc bc bf f7 90 3e bf a3 1a de bf c0 7b 1b c0
       -1.4745175 -0.7443995 -1.7351879 -2.429428
0001e0 6f 86 d3 bf 41 d8 12 c0 46 cd c6 3f 87 60 23 c0
       -1.6525401 -2.294449 1.5531394 -2.5527666
0001f0 c0 09 1a 40 67 3f ad 3f 5f af e4 3f 27 19 e0 3f
       2.406845 1.3534974 1.7866019 1.7507676
000200 e7 88 06 40 99 93 2f 40 92 2a 0d 40 12 80 c7 3f
       2.1021059 2.7433836 2.2057233 1.5585959
000210 87 0e 06 c0 2b 9b d0 bf ac 1a 1b 40 23 88 27 c0
       -2.0946367 -1.6297354 2.423503 -2.6176841
000220 9b c9 01 c0 30 80 c2 3f 97 91 ce bf 06 13 cc 3f
       -2.02793 1.519537 -1.613818 1.5943305
000230 08 87 d2 bf af 4f e4 be 58 c2 89 bf ac b2 e6 3f
       -1.6447458 -0.44592044 -1.0762434 1.8023276
000240 30 19 48 3f be 67 15 c0 a0 65 1c c0 88 74 9f 3f
       0.78163433 -2.334457 -2.4437027 1.2457438
000250 d9 8a ff bf 6e aa c3 bf 6e 98 0f c0 e4 6c 13 40
       -1.9964248 -1.5286386 -2.2436786 2.3035212
000260 62 2d 80 bf 69 56 0c 40 fd 15 f8 3f 20 95 e4 3f
       -1.001385 2.192774 1.938171 1.7858009
000270 b4 a2 27 c0 95 59 10 40 72 ca 88 bf 27 89 3c 3e
       -2.6193056 2.2554677 -1.0686781 0.18411694

fc3.bias f4 [10]
000000 2e 16 c7 bd 7f 8a 0b bd d0 5f 79 3d 3a 86 55 3e
       -0.09721027 -0.034067627 0.06088239 0.20851985
000010 cd 6c da bc 0d d0 dd 3d 27 6c 10 3e a3 fe 99 3d
       -0.026663208 0.10830698 0.14103757 0.07519271
000020 94 94 ba 3d 96 e0 50 3e
       0.0911037 0.20398173
